MUSC/checkpoints/t2t_ch_snr15.pth (torch, 528415 bytes, 4 tensors)

enc_fc1.weight f4 [128, 512]
-0.024375126 -0.03829681 -0.069664486 -0.059669673 0.0032402938 0.05237227 -0.018908905 -0.049431708
0.010218874 -0.06637352 0.033735182 0.02255678 -0.057631195 -0.05842097 -0.017693417 0.011796325
0.008187827 -0.0006791008 -0.016391972 0.04539479 0.023023928 0.008214867 -0.043062285 -0.0105349645
-0.018879408 -0.018579422 -0.026022429 -0.04805552 0.031486757 -0.0040156064 0.03338826 0.07718966
-0.09200869 0.020425625 -0.010526573 -0.08052944 0.022235021 0.057811394 0.011449691 -0.0015787918
-0.031242708 0.03743244 -0.052830145 0.0009468392 -0.026187208 -0.017223092 -0.027963538 0.0060969484
0.05466599 -0.019433113 0.08116498 0.06821339 -0.05247475 -0.0029748608 -0.039884683 -0.013463094
-0.007665437 0.0259782 0.029473718 -0.016075145 0.044512358 -0.049513042 0.08789974 0.028763844
0.047297873 -0.00018900448 -0.007437119 -0.027852613 -0.0691461 0.025052117 -0.07096518 0.041971385
0.04572643 0.041627735 0.01517641 -0.10428563 0.11852081 -0.00013326327 0.07190414 0.031321414
-0.02379906 0.049957387 0.025233759 -0.0010239881 -0.001710436 0.019486839 -0.004934849 -0.019745367
0.07230303 -0.03387876 0.011469673 0.029094681 -0.023848634 0.037476648 0.06741716 0.010557479
0.023125077 -0.025443813 0.02962283 0.006723606 0.04807137 -0.036922894 0.11999481 0.046235822
0.020338537 0.029949525 -0.043070495 -0.023598729 -0.0027681505 0.027097806 -0.004256433 -0.09458101
0.041030876 0.015633829 0.03681896 -0.030021783 0.02338436 0.04909376 0.00072468974 0.0019624385
-0.012676352 0.020259604 0.016791493 -0.00779536 0.01174664 -0.02457828 -0.011972694 0.032264873
-0.0055280877 0.0008343005 -0.0052271155 -0.01231214 0.054956682 -0.038334336 0.015355667 -0.0036474725
-0.030310351 -0.044734526 0.0107278 0.01362974 0.10907638 0.075498104 0.022837253 -0.048642542
0.0026680795 -0.049668923 -0.0045440854 0.0075823385 -0.053340487 0.09758799 -0.017434213 -0.10210957
0.036191348 0.08668897 -0.023675717 0.03815052 -0.013460103 -0.043138914 -0.014319718 -0.014086802
0.04740049 -0.0006749126 -0.008999598 0.031579304 -0.018810984 0.01858967 0.04121945 -0.080737226
0.033693653 -0.01854239 0.019011479 -0.11264552 0.00037628575 -0.0433236 -0.035487752 -0.06432043
-0.0508687 0.043195453 0.036465306 0.010740285 0.017791366 0.042287596 -0.055767894 -0.015179362
-0.1056423 0.01667472 -0.028895402 -0.027775768 0.011243772 0.025583081 0.023399515 -0.010108922
0.009573625 0.08452324 -0.04685402 0.025835732 -0.113096975 0.034231607 0.031188533 0.056298908
0.05846942 0.004452758 -0.0632183 -0.110120215 -0.01704221 -0.0691886 0.053824328 -0.02111363
-0.03920409 0.10998268 -0.01750211 0.0188327 0.01353046 -0.07642269 0.013967889 -0.018644309
0.015968587 0.07737614 0.063638486 -0.06742855 -0.05469869 0.042764343 -0.0019333895 0.005177685
0.024618784 0.02015049 -0.0201729 0.032664973 0.011464238 0.015514204 0.032778412 0.023031937
-0.01358773 -0.02887572 0.056013137 0.071686625 -0.011236235 0.009412558 -0.05022695 -0.04542316
0.046685267 -0.06272983 -0.05847346 -0.019893449 0.014618112 -0.06091232 0.012664468 -0.01995739
0.00256652 -0.046531055 -0.06653838 0.022355018 -0.0004068026 -0.040014826 0.0537533 0.011707914
00000000: 58ae c7bc 1edd 1cbd 41ac 8ebd 3068 74bd
00000010: 1c5b 543b 4e84 563d d9e6 9abc e778 4abd
00000020: 106d 273c d7ee 87bd e72d 0a3d ffc8 b83c
00000030: b00e 6cbd d44a 6fbd c9f1 90bc 6045 413c
00000040: 3c26 063c af05 32ba 7548 86bc e3ef 393d
00000050: ad9c bc3c a697 063c 1462 30bd d89a 2cbc
00000060: fda8 9abc df33 98bc fd2c d5bc ddd5 44bd
00000070: 42f8 003d 5995 83bb 21c2 083d 9d15 9e3d
00000080: 0d6f bcbd a453 a73c a677 2cbc 9eec a4bd
00000090: 3826 b63c a4cb 6c3d 7c97 3b3c 76ef ceba
000000a0: b5f0 ffbc c252 193d 6c64 58bd 4e35 783a
000000b0: 8e86 d6bc 7117 8dbc ca13 e5bc e9c8 c73b
000000c0: 72e9 5f3d 3132 9fbc d339 a63d 76b3 8b3d
000000d0: c3ef 56bd e2f5 42bb 1f5e 23bd 4f94 5cbc
000000e0: 592e fbbb 3cd0 d43c de72 f13c 06b0 83bc
000000f0: 9752 363d 30ce 4abd c704 b43d 27a2 eb3c
00000100: 6abb 413d 812f 46b9 13b3 f3bb 2a2b e4bc
00000110: 789c 8dbd 193a cd3c 3156 91bd 30ea 2b3d
00000120: a34b 3b3d d881 2a3d 7aa6 783c b493 d5bd
00000130: 0abb f23d 96bc 0bb9 7a42 933d e24a 003d
00000140: 3ff6 c2bc 1ea0 4c3d 07b7 ce3c 5737 86ba
00000150: b530 e0ba dda2 9f3c 84b4 a1bb 09c1 a1bc
00000160: 9c13 943d 74c4 0abd 4ceb 3b3c f857 ee3c
00000170: 365e c3bc 1d81 193d 0212 8a3d 47f9 2c3c
00000180: cd70 bd3c 8b6f d0bc 94ab f23c b251 dc3b
00000190: 7ce6 443d 763c 17bd d7bf f53d c661 3d3d
000001a0: 019d a63c b558 f53c b06a 30bd 1f52 c1bc
000001b0: dc69 35bb 38fc dd3c 8c79 8bbb b0b3 c1bd
000001c0: fe0f 283d 8412 803c 7acf 163d 3ef0 f5bc
000001d0: 8f90 bf3c 8a16 493d 1bf9 3d3a 419c 003b
000001e0: 79b0 4fbc 78f7 a53c 508e 893c 3870 ffbb
000001f0: fb74 403c 6458 c9bc 1e29 44bc 2c28 043d
00000200: f624 b5bb f5b4 5a3a 3948 abbb dcb8 49bc
00000210: 421a 613d 7704 1dbd 5696 7b3c 6f0a 6fbb
00000220: 6a4d f8bc 8d3b 37bd a8c3 2f3c 464f 5f3c
00000230: 7063 df3d c09e 9a3d 3115 bb3c 673d 47bd
00000240: f2da 2e3b a471 4bbd 8de6 94bb 4475 f83b
00000250: 8e7b 5abd 36dc c73d 32d2 8ebc d21e d1bd
00000260: 613d 143d fd89 b13d 94f3 c1bc b843 1c3d
00000270: c487 5cbc 6eb2 30bd 409d 6abc 54cc 66bc
00000280: 0427 423d 9eec 30ba 0d73 13bc 4d59 013d
00000290: 7e19 9abc 5d49 983c bad5 283d 8f59 a5bd
000002a0: 5b02 0a3d 36e6 97bc f6bd 9b3c b2b2 e6bd
000002b0: 3848 c539 1674 31bd 9b5b 11bd 6eba 83bd
000002c0: b35b 50bd b7ed 303d a55c 153d 05f8 2f3c
000002d0: 33bf 913c c235 2d3d e06c 64bd dcb2 78bc
000002e0: fd5a d8bd 6c99 883c 0db6 ecbc 028a e3bc
000002f0: cc37 383c 9c93 d13c 57b0 bf3c e49f 25bc
00000300: b2da 1c3c 851a ad3d 00ea 3fbd 75a5 d33c
00000310: 639f e7bd 7136 0c3d 187f ff3c af99 663d
00000320: a17d 6f3d 71e8 913b 9978 81bd b586 e1bd
00000330: 1b9c 8bbc c1b2 8dbd e676 5c3d 7ef6 acbc
00000340: 7894 20bd 993e e13d 9660 8fbc 0947 9a3c
00000350: ddae 5d3c 8083 9cbd 93d9 643c f3bb 98bc
00000360: 8ed0 823c 6277 9e3d e554 823d fb17 8abd
00000370: bc0b 60bd aa29 2f3d c969 fdba 92a9 a93b
00000380: 55ad c93c a412 a53c a341 a5bc b5cb 053d
00000390: 80d4 3b3c 4a2f 7e3c a842 063d 79ad bc3c
000003a0: 129f 5ebc c68c ecbc 086e 653d 70d0 923d
000003b0: 2f18 38bc 2137 1a3c c6ba 4dbd a30d 3abd
000003c0: 0d39 3f3d 7f78 80bd de81 6fbd 96f7 a2bc
000003d0: ce80 6f3c 327f 79bd a17e 4f3c ae7d a3bc
000003e0: 0f33 283b 5997 3ebd 4645 88bd df21 b73c
000003f0: 1f48 d5b9 96e6 23bd 6c2c 5c3d 8dd2 3f3c

enc_fc1.bias f4 [128]
0.011956223 -0.023562703 -0.002423327 -0.036240608 -0.02671652 0.040832207 0.013078996 -0.011489124
0.011854409 0.042386666 0.025799476 -0.018849408 0.023488734 0.015068904 -0.014096173 0.021879075
0.033112187 0.031877175 0.022715323 0.048780076 -0.013403426 0.017212732 0.02829708 -0.00043558987
-0.019690162 -0.0118355295 0.038423456 0.0063992855 0.012992759 0.042830724 -0.046699755 -0.01104023
0.029094782 0.019126378 -0.05129939 -0.021166597 0.017985834 0.027571717 -0.016561553 0.0032436894
0.0071757664 0.0033774744 -0.010604063 -0.003571766 0.030644491 0.004488813 -0.0100317625 0.017486244
-0.037931964 -0.03707719 -0.033874962 -0.031576913 0.04685799 -0.04762236 -0.010752635 0.0037069006
0.017027076 0.029997261 -0.038468007 0.031992555 0.006519787 0.021680567 -0.013392323 -0.041661076
0.0319186 0.034164354 -0.012591966 -0.036197186 -0.031978212 0.01676067 0.0077183936 -0.052015085
0.0014346003 -0.029993245 -0.04493036 -0.009046829 0.03492223 0.045767758 0.0067442874 0.0004527058
0.007838866 -0.055882607 0.008332122 -0.010011247 -0.024276437 0.030723477 -0.01390185 -0.027785806
0.025070775 0.036418553 0.008695894 -0.016206365 -0.052596197 -0.03656832 0.02151532 0.01918351
0.020906094 -0.005207574 0.020654414 0.026979687 0.0436797 -0.007960353 -0.04116323 0.036041617
0.023855895 -0.017925164 0.0121769775 -0.016012652 -0.049241807 -0.0010786159 0.03842907 -0.006969704
0.03710035 0.02195805 -0.0053038113 -0.015891401 -0.036592614 -0.0058484823 -0.020549351 -0.0054330006
0.027640153 -0.0033802574 -0.010767438 -0.011513068 -0.020243349 -0.015975898 0.038015775 -0.021800078
00000000: 09e4 433c 9206 c1bc aed0 1ebb 0871 14bd
00000010: 9adc dabc ac3f 273d 4949 563c e13c 3cbc
00000020: ff38 423c a49d 2d3d 6c59 d33c 136a 9abc
00000030: 726b c03c 90e3 763c a3f3 66bc bf3b b33c
00000040: a5a0 073d a491 023d 7c15 ba3c 9ecd 473d
00000050: 0b9a 5bbc b701 8d3c 47cf e73c e25f e4b9
00000060: 434d a1bc cfe9 41bc ea61 1d3d 19b1 d13b
00000070: 95df 543c 456f 2f3d 3e48 3fbd 15e2 34bc
00000080: 2e58 ee3c ecae 9c3c 4f1f 52bd 9265 adbc
00000090: 0757 933c 15de e13c 18ac 87bc 1494 543b
000000a0: b122 eb3b 9e58 5d3b aabc 2dbc 4a14 6abb
000000b0: 280a fb3c e516 933b 435c 24bc 503f 8f3c
000000c0: 8c5e 1bbd 40de 17bd 79c0 0abd cb56 01bd
000000d0: 2aee 3f3d aa0f 43bd d22b 30bc 79ef 723b
000000e0: 5e7c 8b3c d1bc f53c a190 1dbd a00a 033d
000000f0: f0a3 d53b 729b b13c 796b 5bbc cea4 2abd
00000100: 14bd 023d ecef 0b3d 894e 4ebc 8043 14bd
00000110: 96fb 02bd ac4d 893c 94ea fc3b c50d 55bd
00000120: 3309 bc3a 65b4 f5bc e608 38bd 2739 14bc
00000130: 9d0a 0f3d f976 3b3d 2fff dc3b 2559 ed39
00000140: 966e 003c 29e5 64bd 7483 083c 3706 24bc
00000150: 61df c6bc cdaf fb3c 96c4 63bc 0f9f e3bc
00000160: 3a61 cd3c 9f2b 153d 3979 0e3c 36c3 84bc
00000170: 1c6f 57bd aac8 15bd e540 b03c bd26 9d3c
00000180: 4243 ab3c 4ca4 aabb 7233 a93c 8104 dd3c
00000190: 7ce9 323d 246c 02bc c69a 28bd 60a0 133d
000001a0: 706d c33c cbd7 92bc f281 473c f72c 83bc
000001b0: c7b1 49bd 5860 8dba cd67 1d3d 1d62 e4bb
000001c0: 89f6 173d 5ee1 b33c 98cb adbb af2e 82bc
000001d0: 23e2 15bd a0a4 bfbb 1d57 a8bc 5007 b2bb
000001e0: 9a6d e23c 4f87 5dbb e969 30bc 4fa1 3cbc
000001f0: 61d5 a5bc e3df 82bc 6eb6 1b3d 1496 b2bc

dec_fc2.weight f4 [512, 128]
-0.06557989 -0.0021267734 -0.038106736 0.023104811 -0.06799893 -0.021887528 -0.067851305 0.019423028
0.030078257 0.06184588 0.09713429 0.011808986 0.011862371 -0.006441166 0.0019100494 0.017361186
0.06732827 0.051968828 -0.022228114 0.028753433 -0.045349494 -0.04086617 0.037392553 0.0017636238
0.029718366 0.019076953 0.022975838 0.012961509 0.0012847197 0.04776356 -0.041704636 -0.03758522
-0.037669513 -0.043652304 0.04897113 0.036431983 -0.0245706 -0.0038276454 -0.07007396 0.08325487
0.0120853735 0.0058372766 0.014424885 -0.007393118 0.037510585 0.08158562 -0.004663833 -0.012039573
0.007325257 0.011462842 0.0325703 -0.039769363 0.02123801 -0.005969375 0.028692331 0.0016009798
-0.041613407 -0.037204545 -0.048683412 -0.039681323 -0.012905101 -0.041168645 0.04638971 -0.055290584
0.08934837 -0.03526196 0.017316831 0.012006469 -0.04490575 -0.05256185 -0.0061060474 0.021183906
0.015827635 0.018331448 0.050029594 -0.017736316 -0.049037438 -0.033100396 0.051978093 0.01502331
-0.017922126 0.0013363541 0.037626915 0.087339245 0.031645175 0.066566005 0.033508256 0.04124497
-0.06069793 -0.02357527 -0.037701715 0.028748656 0.041157104 -0.013379677 -0.022804596 0.04071482
-0.058009245 -0.029066738 -0.0023785566 -0.0063532167 -0.0489739 -0.0029849426 -0.03914528 -0.014049822
0.0716166 0.003818901 0.01229954 -0.01904755 0.060714126 0.034268152 -0.08550045 0.033987354
-0.036993872 0.015981657 -0.0020710428 -0.071676865 -0.009122941 0.04202018 0.032082982 -0.041670546
0.01623046 0.043973967 -0.046239156 0.005168863 0.057474438 -0.01776532 -0.016547509 0.03504158
-0.04327309 0.014347412 -0.027095374 -0.0130959 0.0060266107 0.04872561 0.013238879 0.0025727756
0.027502857 -0.027151272 0.03613716 -0.006365294 0.032596517 0.005035803 0.002835058 0.005476035
-0.023069631 0.014630569 -0.05192652 -0.0002982749 0.032648146 -0.026739297 -0.06118569 0.057082776
0.058333628 -0.0043294644 0.009467874 -0.05154325 -0.063613825 0.0009856706 -0.009882346 -0.0008660022
0.06504969 0.055394076 0.00086937234 -0.00018940755 -0.0050202054 0.03791907 -0.06491281 0.07114821
-0.035075787 0.025211321 0.029563963 0.026870375 -0.014880301 0.0023173227 0.009936463 -0.01341838
0.027886724 0.061302353 0.019899847 -0.0530067 -0.028018445 -0.032987606 0.027006963 -0.036754258
-0.0031915442 -0.023885986 -0.031956572 -0.009754629 0.005868849 -0.05562447 0.012349522 0.023500672
0.0066732867 -0.043981727 0.020792851 0.040941425 -0.014272485 -0.044528373 0.058471195 0.00010653908
0.04735965 -0.012717898 0.00045971663 0.033657074 -0.0045958622 -0.00022880812 0.033622403 -0.0011259286
-0.017506182 0.049006127 0.03826123 -0.02749877 0.021160003 0.027095491 -0.047496695 -0.014840309
0.044383444 0.013612412 -0.027995043 -0.057331435 -0.0022306843 0.027668785 -0.009399785 -0.02653521
-0.03042002 -0.031685036 -0.014420295 0.01888966 0.0020611056 -0.017896732 -0.012183752 0.068618216
0.030210752 0.023720277 0.015392637 -0.053017184 0.018644622 0.03168674 -0.04413794 -0.033850163
-0.021435427 0.030782722 -0.025355102 -0.025737425 -0.044297706 0.016209513 -0.045282423 0.025545632
0.021099417 -0.007190518 0.008747484 0.014463996 -0.03415288 0.056533948 -0.0023263295 0.0016440348
00000000: c04e 86bd 5661 0bbb cf15 1cbd 4d46 bd3c
00000010: 0643 8bbd 794d b3bc a0f5 8abd 0b1d 9f3c
00000020: ad66 f63c 1b52 7d3d 58ee c63d 7a7a 413c
00000030: 645a 423c 6b10 d3bb 9f5a fa3a 0c39 8e3c
00000040: 67e3 893d 44dd 543d bc17 b6bc 528c eb3c
00000050: 64c0 39bd 4963 27bd ef28 193d 6529 e73a
00000060: ee73 f33c 4547 9c3c d337 bc3c 825c 543c
00000070: 0a64 a83a b9a3 433d 7bd2 2abd f6f2 19bd
00000080: 594b 1abd c2cc 32bd f495 483d b439 153d
00000090: 4848 c9bc 3cd9 7abb f082 8fbd 8781 aa3d
000000a0: bb01 463c a046 bf3b 5a56 6c3c f841 f2bb
000000b0: b3a4 193d 5d16 a73d 11d3 98bb a141 45bc
000000c0: b608 f03b a5ce 3b3c 6f68 053d 33e5 22bd
000000d0: 56fb ad3c bf9a c3bb 2e0c eb3c f8d7 d13a
000000e0: d272 2abd cb63 18bd 4268 47bd e288 22bd
000000f0: eb6f 53bc 74a0 28bd 2303 3e3d 6178 62bd
00000100: 47fc b63d d86e 10bd 07dc 8d3c c8b6 443c
00000110: 17ef 37bd 184b 57bd 3d15 c8bb df89 ad3c
00000120: f5a8 813c d52b 963c d5eb 4c3d c04b 91bc
00000130: 7bdb 48bd 4894 07bd fbe6 543d 5424 763c
00000140: 6cd1 92bc 9a28 af3a ae1e 1a3d ebde b23d
00000150: 5f9e 013d c253 883d f43f 093d 7cf0 283d
00000160: 659e 78bd ed20 c1bc 1d6d 1abd 4d82 eb3c
00000170: 5a94 283d 6f36 5bbc b4d0 babc 95c4 263d
00000180: 1a9b 6dbd 5e1d eebc 8fe1 1bbb a52e d0bb
00000190: db98 48bd 079f 43bb cd56 20bd 3a31 66bc
000001a0: b9ab 923d 8746 7a3b 0384 493c 9c09 9cbc
000001b0: 60af 783d c35c 0c3d dc1a afbd 5336 0b3d
000001c0: e386 17bd f7eb 823c 55ba 07bb 52cb 92bd
000001d0: 6378 15bc 5a1d 2c3d 7269 033d bcae 2abd
000001e0: bef5 843c 0c1e 343d 4565 3dbd 915f a93b
000001f0: 516a 6b3d 9488 91bc a48e 87bc c387 0f3d
00000200: 203f 31bd 6811 6b3c 1ef7 ddbc 3090 56bc
00000210: e07a c53b 8194 473d e2e7 583c 039c 283b
00000220: ac4d e13c 586c debc 8f04 143d f593 d0bb
00000230: ed83 053d 6103 a53b 61cc 393b 5070 b33b
00000240: 86fc bcbc 0eb5 6f3c e7b0 54bd c861 9cb9
00000250: 10ba 053d 5f0c dbbc d99d 7abd a1cf 693d
00000260: 3eef 6e3d 2ede 8dbb 241f 1b3c 041f 53bd
00000270: f747 82bd 9e31 813a 90e9 21bc 6d04 63ba
00000280: c638 853d e6e4 623d 97e6 633a b49b 46b9
00000290: 8980 a4bb 0751 1b3d 02f1 84bd 27b6 913d
000002a0: a1ab 0fbd f987 ce3c 2030 f23c 431f dc3c
000002b0: 82cc 73bc 39de 173b 8ccc 223c c4d8 5bbc
000002c0: b372 e43c 2d18 7b3d 0105 a33c 8e1d 59bd
000002d0: f086 e5bc 031e 07bd b53d dd3c a28b 16bd
000002e0: 3a29 51bb 8bac c3bc e5e4 02bd e1d1 1fbc
000002f0: 794f c03b 7cd6 63bd a655 4a3c 7b84 c03c
00000300: 96ab da3b 2f26 34bd c555 aa3c 32b2 273d
00000310: 24d7 69bc 6263 36bd 7e7f 6f3d bc6d df38
00000320: 31fc 413d bb5e 50bc 1f06 f139 00dc 093d
00000330: e398 96bb 36ec 6fb9 a5b7 093d e593 93ba
00000340: 2069 8fbc a6ba 483d cfb7 1c3d 1a45 e1bc
00000350: be57 ad3c 5df7 dd3c e58b 42bd c424 73bc
00000360: 6acb 353d 9806 5f3c dc55 e5bc 5ed4 6abd
00000370: ac30 12bb a6a9 e23c 8e01 1abc 5e60 d9bc
00000380: 6833 f9bc 2bc8 01bd 1a43 6cbc 7dbe 9a3c
00000390: 9d13 073b 2b9c 92bc 5c9e 47bc b587 8c3d
000003a0: 8a7c f73c 0751 c23c 6631 7c3c 8c28 59bd
000003b0: 9bbc 983c f5c9 013d fcc9 34bd 78a6 0abd
000003c0: 5999 afbc 0c2c fc3c 81b5 cfbc 4bd7 d2bc
000003d0: 8371 35bd d0c9 843c 107a 39bd 1345 d13c
000003e0: afd8 ac3c 709e ebbb 9b51 0f3c 65fa 6c3c
000003f0: e4e3 0bbd 2490 673d 5575 18bb a77c d73a

dec_fc2.bias f4 [512]
-0.016760536 0.053795177 0.017263975 -0.03319263 0.008172051 -0.063631 0.062453683 -0.08557818
-0.024271606 -0.060601115 -0.063828886 -0.09170595 0.023511494 -0.0015812913 0.020884 0.089723624
0.025583118 0.033190366 0.025630409 0.008760877 -0.025487011 0.058749676 -0.05355838 0.07597918
0.05149063 -0.047768254 -0.011936172 -0.05936675 -0.07209393 0.008998055 0.013325236 0.036234397
-0.08563837 0.07193937 0.009028444 0.036057953 -0.04600589 -0.11034228 -0.06300718 -0.035607867
-0.069987774 -0.056936078 -0.07066588 -0.038978312 -0.026675386 0.0894032 -0.06491914 0.06004953
-0.06838883 -0.07979789 -0.059809484 0.023467174 0.06367686 -0.0606386 -0.006160132 0.04472391
0.044420406 -0.06738761 -0.0076404456 -0.0941661 -0.070757546 -0.07535251 0.053806145 -0.010397385
-0.062031668 0.04167777 0.04099262 0.04686943 -0.03200347 -0.0024128943 0.022075687 0.025778223
-0.06481284 0.03832782 0.064371035 -0.0099003315 0.01632146 0.038825464 0.040074483 -0.05705679
0.073331416 -0.0018569025 -0.035148017 -0.01860416 -0.028363891 -0.06791052 -0.043697596 -0.054130767
-0.07660576 -0.042451322 -0.009912868 0.014702567 0.044002857 -0.032636795 0.020241383 -0.0466505
-0.04831428 -0.0118142385 -0.031279325 0.011169497 0.05165935 -0.007831869 0.03030651 0.005735155
-0.021914802 0.084346764 -0.077638365 0.058845293 -0.092429236 0.013843668 -0.008615479 0.0070944135
-0.06792522 -0.0076769413 -0.0060716053 0.03584485 0.06805734 -0.029864596 0.048765138 -0.0060363947
-0.0131907165 0.046143245 0.048233036 -0.042715363 -0.058855094 0.01667727 0.022899643 0.038276445
-0.030205965 -0.059182726 0.024132146 -0.055119887 -0.056180146 0.023249406 -0.030896688 0.032389745
-0.030185714 0.030892521 -0.055529002 0.045388702 0.019274754 -0.09119165 0.022399189 0.021055415
-0.025000758 0.05748383 0.027873943 -0.00015076088 0.031576302 0.02814264 0.04913513 -0.005354989
0.009444774 0.049861997 0.07905108 0.052243985 0.049261324 -0.07228355 -0.013300528 -0.052883327
-0.04948957 -0.048797365 -0.023730533 0.057087623 0.013390946 0.033050563 0.013897877 0.011282158
-0.06823867 0.077453256 -0.0447607 -0.07734157 -0.043095842 -0.021503054 -0.00095997413 -0.041924745
-0.020371247 0.04708909 0.0022774383 -0.06682352 -0.042706955 0.013496231 0.04392647 0.010333872
-0.03050877 -0.019473402 -0.018858809 0.0040634596 -0.013521627 -0.04763545 0.047895163 0.030921593
0.036665823 0.08201755 0.005926366 -0.062295858 -0.005278275 -0.07055348 -0.07594349 0.04330346
0.010759981 -0.010727176 -0.011665441 0.007934294 0.024080412 0.023176039 0.01816712 0.040671494
0.036897104 0.06519282 -0.07724888 -0.0002827672 0.02959518 -0.04057575 0.02637473 0.084900245
0.047097754 -0.0064449413 0.072616965 0.027708897 -0.079394616 -0.074979454 0.026114967 0.017927706
-0.0848713 0.03526502 0.050659712 0.018578144 -0.019027742 0.04728139 -0.032074317 -0.0019343536
-0.033240393 -0.017824676 -0.0714554 0.020700196 -0.05000854 0.033244327 0.026278354 0.045111045
-0.069256365 -0.059245087 -0.066368975 0.04814309 -0.096115276 -0.07021165 0.02687059 0.043532968
-0.086240776 -0.024629196 0.019640317 -0.015667731 -0.06144134 -0.04586231 -0.09441817 -0.03754334
00000000: 644d 89bc 5558 5c3d 2e6d 8d3c fff4 07bd
00000010: 11e4 053c f850 82bd 6fcf 7f3d 9d43 afbd
00000020: 3fd5 c6bc e038 78bd b8b8 82bd 54d0 bbbd
00000030: 2d9b c03c 5543 cfba ec14 ab3c 05c1 b73d
00000040: b093 d13c 9ff2 073d ddf6 d13c c889 0f3c
00000050: 23ca d0bc 80a3 703d 0860 5bbd f99a 9b3d
00000060: d7e7 523d a5a8 43bd ef8f 43bc 8d2a 73bd
00000070: fba5 93bd 946c 133c 1752 5a3c 856a 143d
00000080: 2b63 afbd f354 933d 0aec 133c 81b1 133d
00000090: ac70 3cbd 22fb e1bd e909 81bd 8ed9 11bd
000000a0: c055 8fbd ce35 69bd 46b9 90bd b9a7 1fbd
000000b0: 5786 dabc 0619 b73d 53f4 84bd 7ff6 753d
000000c0: 710f 8cbd 136d a3bd cafa 74bd 3b3e c03c
000000d0: 0369 823d 2e60 78bd efda c9bb 6b30 373d
000000e0: 2cf2 353d 8402 8abd b45c fabb 28da c0bd
000000f0: 55e9 90bd 6b52 9abd d563 5c3d cb59 2abc
00000100: eb14 7ebd 4fb6 2a3d e1e7 273d 29fa 3f3d
00000110: 1216 03bd a621 1ebb 12d8 b43c da2c d33c
00000120: 98bc 84bd a2fd 1c3d f6d4 833d 0035 22bc
00000130: 95b4 853c 7307 1f3d 2425 243d 61b4 69bd
00000140: c82e 963d 4f63 f3ba 5ef7 0fbd c067 98bc
00000150: 645b e8bc ac14 8bbd 40fc 32bd 39b8 5dbd
00000160: 7be3 9cbd 70e1 2dbd 9569 22bc 09e3 703c
00000170: 573c 343d 29ae 05bd 42d1 a53c 9814 3fbd
00000180: 32e5 45bd 8290 41bc c01e 00bd 4400 373c
00000190: c198 533d 3d51 00bc 5c45 f83c f8ed bb3b
000001a0: ac86 b3bc ffbd ac3d dd00 9fbd c307 713d
000001b0: 8a4b bdbd 8dd0 623c f027 0dbc 4178 e83b
000001c0: 611c 8bbd da8e fbbb 51f4 c6bb 0dd2 123d
000001d0: a661 8b3d 99a6 f4bc f4bd 473d f3cc c5bb
000001e0: e01d 58bc b300 3d3d 0190 453d 4ef6 2ebd
000001f0: 0a12 71bd c59e 883c 0898 bb3c c3c7 1c3d
00000200: 8072 f7bc 9669 72bd c7b0 c53c 64c5 61bd
00000210: 271d 66bd 8a75 be3c 0d1b fdbc 1cab 043d
00000220: 0848 f7bc 5012 fd3c 6172 63bd 81e9 393d
00000230: 17e6 9d3c b0c2 babd 817e b73c 687c ac3c
00000240: 64ce ccbc 2a74 6b3d e557 e43c 9115 1eb9
00000250: 2756 013d 658b e63c eb41 493d e778 afbb
00000260: 41be 1a3c 183c 4c3d 88e5 a13d cafd 553d
00000270: 3ec6 493d 6609 94bd 75ea 59bc 309c 58bd
00000280: 93b5 4abd bfdf 47bd 8966 c2bc b6d4 693d
00000290: b365 5b3c 0760 073d ecb3 633c cdd8 383c
000002a0: b7c0 8bbd d09f 9e3d ff56 37bd 4265 9ebd
000002b0: 4485 30bd 2c27 b0bc c6a6 7bba 48b9 2bbd
000002c0: 9ae1 a6bc 7de0 403d 1341 153b c5da 88bd
000002d0: 7ded 2ebd 4c1f 5d3c 3eec 333d 674f 293c
000002e0: 87ed f9bc af86 9fbc ca7d 9abc c526 853b
000002f0: d089 5dbc 641d 43bd b82d 443d 484f fd3c
00000300: e72e 163d d1f8 a73d f631 c23b f129 7fbd
00000310: 61f5 acbb 587e 90bd 4388 9bbd f85e 313d
00000320: a24a 303c 0ac1 2fbc 6820 3fbc d7fe 013c
00000330: 4944 c53c addb bd3c 36d3 943c 2797 263d
00000340: 6b21 173d d083 853d a934 9ebd 5f40 94b9
00000350: 9771 f23c c232 26bd d10f d83c 2ee0 ad3d
00000360: 93e9 403d 1630 d3bb 34b8 943d c5fd e23c
00000370: a599 a2bd d48e 99bd 0eef d53c 20dd 923c
00000380: 01d1 adbd 0e72 103d 8f80 4f3d 3131 983c
00000390: 11e0 9bbc 21aa 413d 5c60 03bd 238a fdba
000003a0: 1427 08bd 0e05 92bc 3557 92bd 7593 a93c
000003b0: c1d5 4cbd 342b 083d b445 d73c 5cc6 383d
000003c0: 48d6 8dbd faaa 72bd 75ec 87bd b031 453d
000003d0: 16d8 c4bd 20cb 8fbd b61f dc3c a04f 323d
000003e0: 019f b0bd 2bc3 c9bc bbe4 a03c 9d59 80bc
000003f0: eaa9 7bbd 1eda 3bbd 505e c1bd 0cc7 19bd
