MUSC/checkpoints/t2t_ch_snr20.pth (torch, 528415 bytes, 4 tensors)

enc_fc1.weight f4 [128, 512]
0	0xbca6c441	-0.020357253
1	0xbd2fba17	-0.04290208
2	0xbc4b14c8	-0.012395091
3	0xbd8d8e91	-0.06911958
4	0xbd52159f	-0.05129015
5	0xbd181b91	-0.037135664
6	0x3caff50f	0.021479158
7	0xbcd79b82	-0.02631927
8	0xbb15e77c	-0.002287357
9	0x3cad9bda	0.02119248
10	0x3cd0b8c0	0.02547872
11	0x3d39fae6	0.04540529
12	0xbd5141ea	-0.05108825
13	0x3d9f0dbd	0.07766292
14	0xbdb40b96	-0.08791272
15	0xbdb4a9cc	-0.08821449
16	0x3d57af07	0.052657153
17	0x3c21feda	0.0098874215
18	0xbbc02dc3	-0.00586483
19	0x3d4c4b81	0.049876694
20	0xbd914529	-0.070932694
21	0x3d390544	0.045171037
22	0x39febe42	0.00048588408
23	0x3cf70857	0.030155344
24	0xbc8566bc	-0.01628434
25	0xbcdd693b	-0.027027717
26	0xbcb8e34f	-0.022569327
27	0xbcc1d8f2	-0.023663018
28	0xbbbd6480	-0.005779803
29	0xbd017910	-0.031609595
30	0x3c778a7a	0.015108699
31	0xbba1adcc	-0.0049340483
32	0xbd1198f8	-0.035546273
33	0x3bea86f9	0.0071572033
34	0x3c6ae057	0.014335713
35	0xbd3561aa	-0.044282593
36	0x3d9287fe	0.07154845
37	0x3d1c1bc2	0.03811241
38	0x3c077b1e	0.0082690995
39	0xbc7037f1	-0.014661775
40	0xbc0792b0	-0.008274719
41	0xbc54f706	-0.012998348
42	0xbd5610aa	-0.052261986
43	0x3d63bc5a	0.055599548
44	0x3ba0a0af	0.0049019675
45	0x3cc9b675	0.024623135
46	0xbc20cf9d	-0.009815124
47	0x3b52a56e	0.003214206
48	0x3ce6b92b	0.028164467
49	0xbc248e68	-0.010043718
50	0xbdf862ba	-0.121282056
51	0xbd66ef94	-0.056380823
52	0xbd2a074b	-0.04151086
53	0xbd3bed14	-0.045880392
54	0xbd490ff6	-0.049087487
55	0xbd5fd106	-0.0546427
56	0x3d66e45b	0.05637012
57	0x3c11b0cc	0.008892249
58	0xbd72f9bd	-0.0593202
59	0x3c5fc367	0.013657427
60	0x3d39aee2	0.045332797
61	0xbb1a2463	-0.0023520223
62	0x3b80c3ef	0.003929607
63	0xbcb77482	-0.022394422
64	0x3d815b6d	0.06316266
65	0xbd989757	-0.07450741
66	0x3d3b3b50	0.04571086
67	0xbaef015f	-0.0018234662
68	0x3d176448	0.03696087
69	0x3c98fcc8	0.018675223
70	0x3b686188	0.0035458524
71	0xbce751d6	-0.028237265
72	0xbb26b05f	-0.0025434715
73	0x3d472703	0.04862119
74	0xbda81635	-0.08207361
75	0xbb87bd06	-0.0041424064
76	0xbc63fb9a	-0.013914967
77	0xbc61ddf1	-0.013785825
78	0xbdb0325c	-0.08603355
79	0x3c8e76de	0.017390665
80	0xbd1c7036	-0.03819295
81	0xba1eedb8	-0.00060626445
82	0xbd2c6e72	-0.042097516
83	0x3d3d8de3	0.04627789
84	0x3daebe07	0.085323386
85	0xbcb15346	-0.021646153
86	0x3ca4a7b0	0.02009949
87	0x3db968d8	0.090532005
88	0xbd500a49	-0.05079106
89	0x3cc6c093	0.024261748
90	0x3d09eb0e	0.03367143
91	0xbd078e8d	-0.03309493
92	0x3d10d049	0.035354886
93	0xbcbeaa2d	-0.023274506
94	0x3d539239	0.05165312
95	0x3d2c6f2a	0.0420982
96	0x3d465e97	0.04843005
97	0x3cd13bc4	0.025541194
98	0x3ccb47a4	0.024814434
99	0xbcf45d55	-0.02982966
100	0x3c42a2aa	0.011879602
101	0x3dbec7e0	0.09315467
102	0xbc2c352c	-0.010510724
103	0xbc106d17	-0.008815072
104	0x3d55767a	0.05211494
105	0x3d9b9e44	0.07598546
106	0x3d2fdd34	0.042935565
107	0xbcf6fd9f	-0.030150233
108	0xbd8ed941	-0.06975032
109	0xbd0cebb0	-0.034404457
110	0x3d6da7c5	0.058021326
111	0xbabf9c75	-0.0014618771
112	0xbcf7d719	-0.030253934
113	0x3cd9d171	0.026589127
114	0x3d5bea89	0.053690467
115	0x3b39f1da	0.0028372915
116	0xbd9c5261	-0.076329
117	0x3d78c420	0.060733914
118	0x3c8bb6bd	0.01705491
119	0xbaa84c60	-0.0012840144
120	0xbcd47cdd	-0.025938446
121	0xbb120735	-0.0022282128
122	0xbd2f9bfc	-0.042873368
123	0x3dafa6f6	0.08576767
124	0xbd6b4d47	-0.057446744
125	0xbc19d203	-0.00938845
126	0xbcc62fd8	-0.024192736
127	0x3d8d349a	0.068947986
128	0xbd54a106	-0.051911376
129	0x3ced7161	0.028984727
130	0xbd673314	-0.056445196
131	0xbd84917e	-0.06473063
132	0x3c6baa96	0.014383933
133	0xbc8e1332	-0.017343137
134	0x3e0406cc	0.12893218
135	0x3d2ed82e	0.042686634
136	0x3d4b4cd2	0.04963381
137	0x3d4d9345	0.050189275
138	0xbb31d701	-0.002713621
139	0xbd3fc9b1	-0.046823207
140	0xbd6597c7	-0.05605295
141	0xbd8d485a	-0.068985656
142	0xbd3bc9da	-0.045846798
143	0xbcb6bcca	-0.022306819
144	0xbcbb491f	-0.022862015
145	0x3c9f5106	0.019447815
146	0xbd9a6e87	-0.07540613
147	0xbcfc0f8b	-0.03076913
148	0x3c6ba31e	0.014382152
149	0xbd34bcb5	-0.044125278
150	0x3d1539e0	0.036432147
151	0x3c846f6d	0.016166413
152	0x3c488854	0.012239534
153	0x3bac17eb	0.0052518747
154	0xbd680d16	-0.056653105
155	0x3bc8b479	0.0061250296
156	0xbc963e0b	-0.018340131
157	0x3d272a6a	0.040811934
158	0x3cd4fd30	0.025999635
159	0xbcd2102a	-0.025642473
160	0xbd5fbe5f	-0.05462491
161	0xbcc1faaa	-0.023679096
162	0x3d01668b	0.031591933
163	0xbc9ec062	-0.019378845
164	0xbd08fb66	-0.033442877
165	0x3b54586f	0.0032401343
166	0x3d48eaa8	0.04905191
167	0xbadea727	-0.0016987071
168	0xbccc2907	-0.024921907
169	0x3c99deb7	0.018782957
170	0xbcd0c0ae	-0.025482502
171	0x3cf103b2	0.029420707
172	0x3b2978e8	0.002585942
173	0x3cfd3744	0.030910142
174	0x3cddc693	0.027072227
175	0xbc86bb9e	-0.016446885
176	0xbc22301f	-0.009899168
177	0x3d86e327	0.065862946
178	0x3d9b48d1	0.07582248
179	0x3d6e52ef	0.05818456
180	0xbc86ab0c	-0.016438983
181	0x3d55d93f	0.052209135
182	0xbc5ce2b4	-0.013481785
183	0x3baa1bed	0.0051913173
184	0xbd3b1c3b	-0.04568122
185	0xbcb1ab18	-0.02168803
186	0x3d7e818e	0.06213527
187	0x3d012478	0.03152892
188	0x3c6f1d9b	0.014594461
189	0xbcf3a545	-0.029741893
190	0x3d138860	0.03601873
191	0x3d137326	0.035998486
192	0xbd029ced	-0.031887937
193	0x3cbd75ad	0.023127401
194	0xbd689a64	-0.056787863
195	0xbd4177b6	-0.047233306
196	0x3d1d1c35	0.03835698
197	0x3d94771d	0.072492816
198	0x3d00152e	0.0312702
199	0xbd55b139	-0.052170966
200	0xba260c28	-0.0006334209
201	0x3d3a033f	0.045413252
202	0xbd27e94e	-0.04099398
203	0x3bedcf26	0.00725736
204	0x3b2878d5	0.0025706787
205	0x3da54473	0.08069696
206	0xbd828836	-0.063736364
207	0xbc8b511c	-0.01700645
208	0xbba4c75f	-0.0050286497
209	0x3cfedb74	0.031110503
210	0xbc32cce6	-0.010913109
211	0x3d1aa53d	0.03775524
212	0xbd831432	-0.06400336
213	0x3ce0cea9	0.027442293
214	0x3d3874d3	0.045033287
215	0x3d3c7f5f	0.046019908
216	0x3d2c7d6d	0.042111803
217	0x3c172387	0.009224779
218	0xbd522cc7	-0.051312234
219	0x3d20998b	0.03920893
220	0xbd6e4288	-0.058168918
221	0x3cc947f2	0.024570439
222	0xbcea4eec	-0.028602086
223	0x3d387204	0.04503061
224	0xbd2abf72	-0.041686483
225	0x3d012fb9	0.031539652
226	0xbd975f73	-0.07391252
227	0xbdc6709d	-0.09689448
228	0x3c9bd70a	0.019023437
229	0x3cbecb5e	0.023290332
230	0xbd91ed59	-0.071253486
231	0xbc0645a7	-0.008195317
232	0xbba45b94	-0.0050158
233	0xbb8472c1	-0.004042
234	0x3d1a74eb	0.037709158
235	0xbd774843	-0.06037165
236	0x3d05ba07	0.032648113
237	0x3cd1d9d4	0.025616564
238	0xbcbb3283	-0.022851234
239	0xbc9a802a	-0.018859942
240	0xbc99d679	-0.018779026
241	0x3c5bb701	0.013410331
242	0xbd29168c	-0.041281268
243	0x3c9356a6	0.017985653
244	0x3d18df78	0.03732249
245	0xbcb7bf9f	-0.02243024
246	0x3cf8c06c	0.030365191
247	0x3d14dfdc	0.0363463
248	0xbd451a9e	-0.048121087
249	0xbc67eb1f	-0.014155178
250	0x3c964dd5	0.01834766
251	0xbcc7269c	-0.024310403
252	0x3cbbf04b	0.022941729
253	0xbafccaca	-0.001928651
254	0x3c9656f7	0.018352015
255	0x3ce81950	0.028332382

enc_fc1.bias f4 [128]
0	0xbc871276	-0.016488295
1	0x3ca72596	0.020403665
2	0xbbd9c84f	-0.006646193
3	0x3c92910b	0.017891428
4	0xbc84b3e4	-0.01619906
5	0x3c0e1878	0.008672826
6	0xbc6393d6	-0.013890227
7	0xbc977614	-0.018488921
8	0xbc938b4f	-0.018010763
9	0x3d1cc4f9	0.038273785
10	0x3c67438c	0.0141152255
11	0x3d1d265e	0.038366668
12	0x3cd651ec	0.02616211
13	0x3b5a0620	0.003326781
14	0xbbfd74e9	-0.007734884
15	0xbd37fb25	-0.044917244
16	0x3d484002	0.048889168
17	0x3c7b86a9	0.01535193
18	0xbc87ddb6	-0.016585212
19	0xbc99791c	-0.018734507
20	0x3d1b4602	0.03790856
21	0xbce2da8f	-0.027692107
22	0xbc645f78	-0.013938777
23	0xbc10824b	-0.008820127
24	0x3bb9eaf0	0.0056737587
25	0xbac6d0b6	-0.0015168402
26	0x3d07bb88	0.033137828
27	0xbb7baa2c	-0.003840099
28	0xbd35f79d	-0.044425596
29	0x3c52b968	0.012861587
30	0xbc87702f	-0.016532985
31	0x3ba22110	0.004947789
32	0x3c871e45	0.016493926
33	0xbc919e8a	-0.017775793
34	0xbc4eb81a	-0.012617135
35	0x3ac8df86	0.0015325404
36	0xbd588526	-0.052861355
37	0x3c3b809a	0.011444235
38	0xbd032b5e	-0.03202378
39	0x3cd6af93	0.026206767
40	0xbbd884e7	-0.00660764
41	0x3c442f83	0.011974218
42	0xbd10a03b	-0.035309058
43	0x3cc6c663	0.02426452
44	0xbb221136	-0.0024729497
45	0x3c875083	0.016517883
46	0xbd2f6747	-0.042823102
47	0xbcf9a4e3	-0.030474132
48	0xbcb19cd2	-0.021681223
49	0x3cde32b5	0.027123788
50	0x3d1a2d8a	0.037641086
51	0xbb27fada	-0.0025631697
52	0xbd2ec003	-0.042663585
53	0xbc33e1be	-0.010979114
54	0x3d0461e0	0.032319903
55	0xbb6dd1a0	-0.0036288276
56	0x3a8d9f26	0.0010804876
57	0x3cb489cf	0.022038369
58	0xbc85e012	-0.016342197
59	0x3c306bef	0.010767921
60	0xbce6d1c3	-0.028176194
61	0xbcfc6bca	-0.030813117
62	0x3c0da56a	0.008645395
63	0x3d1ff701	0.03905392
64	0x3c3d110d	0.01153971
65	0xbcbdeb99	-0.02318363
66	0xbaf6c30f	-0.0018826443
67	0x3d08d72a	0.03340832
68	0x3c3a8231	0.011383579
69	0xbbfa6ce2	-0.0076423744
70	0xbcb7f325	-0.022454808
71	0xbca0e412	-0.019640002
72	0x3b2676e4	0.0025400454
73	0x3ce33cac	0.027738892
74	0xbcdd8745	-0.02704204
75	0xbd1e8199	-0.038697813
76	0x3b146f4f	0.0022649353
77	0x3c942d47	0.018087996
78	0x3af7412f	0.0018864031
79	0xbc25650f	-0.010094895
80	0xbbdc6d74	-0.006726915
81	0xbc884e08	-0.01663877
82	0xbd2d857d	-0.042363632
83	0x3c43861b	0.011933829
84	0xbc89e518	-0.016832873
85	0xbd14f006	-0.036361717
86	0x3d02aacb	0.031901162
87	0xbca49180	-0.020088911
88	0xbc950085	-0.018188724
89	0xbcf66d20	-0.030081332
90	0xb9dae842	-0.00041753246
91	0xbbad6b68	-0.005292345
92	0x3d1480e2	0.036255725
93	0x3d03fac7	0.03222158
94	0x3bf36e52	0.0074289227
95	0x3cc910ab	0.02454408
96	0xbb43cd47	-0.0029876994
97	0x3d2114d2	0.039326496
98	0xbc0db9c4	-0.008650247
99	0x3cab7c6c	0.020933352
100	0x3ce69fb1	0.028152319
101	0x3c4bbf31	0.01243572
102	0xbbe0045e	-0.006836458
103	0x3c812db5	0.015768865
104	0xbc472773	-0.0121554015
105	0x3b9d986f	0.0048094313
106	0xbd00070c	-0.03125672
107	0xbcf4e951	-0.02989641
108	0xbd03f91a	-0.032219984
109	0xbc69f896	-0.014280459
110	0xbc8a50dd	-0.016884262
111	0xbcf01b2f	-0.029309837
112	0xbb992ce2	-0.00467454
113	0x3cf91104	0.030403621
114	0xbba4cfc5	-0.005029651
115	0x3d44212f	0.04788321
116	0xbd283f66	-0.041076086
117	0xbc7176c9	-0.014737793
118	0x3c04bc8c	0.008101594
119	0xbd1e87e1	-0.038703803
120	0xbcc889e8	-0.024479821
121	0x3cf58b0c	0.02997353
122	0xbd0d43d6	-0.03448852
123	0xbb51a346	-0.0031988188
124	0x3cfb89d2	0.030705366
125	0xbcb4df56	-0.022079151
126	0x399cd1b5	0.00029910883
127	0x3b3dd3fe	0.0028965469

dec_fc2.weight f4 [512, 128]
0	0xbd38a1a6	-0.045076035
1	0x3caea3dd	0.02131837
2	0x3bec66fc	0.007214425
3	0x3d516b71	0.051127855
4	0x3cbd0c83	0.023077255
5	0xbd5580d1	-0.052124802
6	0x3c9ea439	0.019365417
7	0xbd320a03	-0.04346658
8	0xbd19d352	-0.037555046
9	0xbd0936da	-0.033499576
10	0x3ce9873a	0.028506864
11	0xba7b8412	-0.000959457
12	0x3bb4396f	0.0055000107
13	0x3db3c48d	0.087777235
14	0xbd343285	-0.04399349
15	0xbcb22baa	-0.021749336
16	0x3ca28dd5	0.019843021
17	0xbd8ae7b6	-0.067824766
18	0x3d216a4f	0.039408024
19	0x3cdd5510	0.0270181
20	0xbcf8c3b9	-0.030366765
21	0xbd0573a5	-0.03258099
22	0x3ce9849b	0.028505614
23	0xbd4b0514	-0.04956539
24	0x3d6ea11c	0.058259115
25	0xbc552865	-0.013010119
26	0xbc4402ec	-0.011963587
27	0xbd2eba87	-0.042658355
28	0xbb097a65	-0.0020977494
29	0xbcd84fc3	-0.02640522
30	0xbde022a8	-0.1094411
31	0xbd825298	-0.0636341
32	0xbc8feb6e	-0.017568316
33	0x3cc19f21	0.023635449
34	0xbcf2120b	-0.02954962
35	0xbc9482a4	-0.0181287
36	0xbcf9727f	-0.030450104
37	0x3d20a4c9	0.03921965
38	0x3cc3949c	0.023874573
39	0x3d0e6198	0.03476104
40	0xbd4e20fc	-0.050324425
41	0xbd04c4ff	-0.032414433
42	0x3d4e824e	0.050417237
43	0xbda50a87	-0.080586486
44	0x3d03ff0f	0.032225665
45	0xbc2fd3fd	-0.010731694
46	0x3d282657	0.04105219
47	0xbc4b8985	-0.012422924
48	0xbd2ec3f9	-0.042667363
49	0x3d6daa80	0.05802393
50	0x3d22c66f	0.039740022
51	0x3d2184c2	0.03943325
52	0x3d4f360c	0.050588652
53	0xbd3a1da7	-0.045438435
54	0x3cd6962d	0.026194656
55	0xbca86e70	-0.020560473
56	0xbe0616ec	-0.13094682
57	0xbdbe7c40	-0.093010426
58	0xbd3813d8	-0.0449408
59	0xbcba6494	-0.022753038
60	0xbdd7f6d7	-0.10545128
61	0x3cc48f5d	0.023994142
62	0xbc80f69c	-0.015742593
63	0xbd769604	-0.06020166
64	0x3ad6280b	0.0016338838
65	0xbdb5a5d9	-0.088695236
66	0x3d14437f	0.03619718
67	0x3d660eb1	0.056166355
68	0xbd1345e2	-0.035955317
69	0x3cc81769	0.024425225
70	0xbd50001f	-0.050781365
71	0xbd1bece7	-0.038067725
72	0xbc2be55c	-0.010491695
73	0xbcc244a8	-0.023714378
74	0xbd781417	-0.060566034
75	0xbd84801f	-0.0646975
76	0x3d91e5ba	0.07123895
77	0x3ced014e	0.028931286
78	0xbbd2f2c2	-0.0064376304
79	0x3ba6815f	0.00508134
80	0x3d392fe0	0.045211673
81	0xbd7887e8	-0.060676485
82	0xbd288060	-0.041138053
83	0x3ca9ff21	0.020751538
84	0xbd5a3d47	-0.053281095
85	0xbd2c47be	-0.042060606
86	0xbd490ea9	-0.049086247
87	0x3c11a230	0.008888766
88	0x3d1ba925	0.038003106
89	0x3d5c7dd2	0.05383093
90	0xbc5d6708	-0.013513334
91	0x3d120ac8	0.035654813
92	0x3d0f384f	0.03496581
93	0x3bf52c84	0.0074821133
94	0xbbcb1020	-0.0061969906
95	0x3da381b1	0.07983721
96	0x3cc9e849	0.024646895
97	0x3cc476e7	0.023982478
98	0xbc6625c3	-0.014047089
99	0xbd783b70	-0.06060356
100	0x3db88de5	0.09011439
101	0x3c8f7986	0.017514002
102	0xbd8caf76	-0.06869404
103	0xbd09b41b	-0.033619028
104	0x3d684bda	0.056712963
105	0x3aad6787	0.0013229706
106	0x3c67e49b	0.014153625
107	0xbd0b3bd3	-0.0339926
108	0xbc63f6e6	-0.013913846
109	0x3cc5d258	0.024148151
110	0xbc49a879	-0.012308233
111	0xbcdbea5e	-0.026845153
112	0x3cb2f7c5	0.021846661
113	0x3d076ec0	0.033064604
114	0xbced51f0	-0.028969735
115	0x3cca2300	0.024674892
116	0x3cc09853	0.023510134
117	0x3ce911d2	0.02845088
118	0x3cb01fd1	0.021499546
119	0x3d36f1dd	0.044664253
120	0x3d8818a4	0.06645325
121	0xbc9612d0	-0.018319517
122	0xbcaab180	-0.020836592
123	0x3e16dc97	0.14732586
124	0x3d7a4349	0.061099324
125	0xbbdf12bb	-0.006807653
126	0xbd3d9003	-0.04627992
127	0x3b3d441c	0.0028879708
128	0xbd6efa0a	-0.058343925
129	0x3d9271d1	0.07150615
130	0x3db12190	0.0864898
131	0xbc32c652	-0.010911541
132	0xbd388b3b	-0.045054656
133	0xbd88ef1b	-0.06686231
134	0xbd3ad5c9	-0.045614038
135	0x3cd2028b	0.025635978
136	0x3cdc6328	0.02690275
137	0xbccbe302	-0.02488852
138	0x3c524abb	0.0128352
139	0x3d4e9411	0.050434176
140	0xbb7f6392	-0.003896926
141	0x3d63203d	0.055450667
142	0x3af318d8	0.0018546833
143	0x3c97cad7	0.018529339
144	0xbdcd9190	-0.100375295
145	0xbc34fb63	-0.011046263
146	0x3d35744b	0.04430036
147	0xbcc33547	-0.023829116
148	0xbbcd7a67	-0.006270695
149	0xbda138ff	-0.07872199
150	0x3d485649	0.048910413
151	0x3d9029f7	0.07039254
152	0xbcbde3ef	-0.023179976
153	0xbcbf371e	-0.023341712
154	0x3d17d523	0.037068497
155	0x38a118d5	7.6817036e-05
156	0x3d1a0325	0.037600655
157	0xbc38d5dc	-0.011281457
158	0xbdb4c2ea	-0.088262394
159	0xbd682ed4	-0.056685284
160	0xbca568b5	-0.02019153
161	0xbc89f052	-0.016838226
162	0x3a727c54	0.0009250094
163	0xbcd659d2	-0.026165877
164	0x3b76bb9e	0.003764845
165	0x3b9a157b	0.0047022677
166	0xbda1f2c0	-0.07907629
167	0xbaae1137	-0.0013280277
168	0xbd41d5c3	-0.047323
169	0xbc47aa9a	-0.012186671
170	0xbd102287	-0.035189178
171	0xbd1a5288	-0.037676364
172	0xbb175119	-0.002308911
173	0x3d3782c7	0.044802453
174	0x3d72a353	0.05923779
175	0xbc94e8b2	-0.018177364
176	0x3cda5f53	0.026656782
177	0x3cbcf608	0.023066536
178	0x3d59a19c	0.05313264
179	0x3d0d0b3b	0.03443454
180	0xbd725092	-0.05915887
181	0x3d6258a2	0.055260308
182	0x3cbe8f55	0.023261705
183	0x3d800585	0.06251053
184	0xbcaa0cdf	-0.02075809
185	0x3d771784	0.06032516
186	0x3c788933	0.01516943
187	0x3bb9e138	0.0056726
188	0xbcde3443	-0.02712453
189	0xbbe3922e	-0.006944916
190	0x3c1ee13e	0.009697257
191	0xbd7ce789	-0.061744247
192	0xbca553a1	-0.020181479
193	0xbdc66d8b	-0.096888624
194	0xbd49e602	-0.04929162
195	0xbd016bd1	-0.031596962
196	0x3cc81fe6	0.024429273
197	0x3b975b46	0.004619035
198	0x3d2fa7b7	0.042884555
199	0xbd4c54bd	-0.0498855
200	0x3d979876	0.074021265
201	0x3bf76566	0.0075499294
202	0x3bede42f	0.0072598676
203	0xba027d7c	-0.0004977805
204	0x3d197713	0.037467074
205	0xbcb48875	-0.022037724
206	0xbc82b1ad	-0.015953863
207	0xbc829e16	-0.015944522
208	0x3ced72f0	0.02898547
209	0xba4a9299	-0.0007727533
210	0xbc7391ab	-0.014866273
211	0xba19fc0c	-0.0005874045
212	0xbbc3d014	-0.0059757326
213	0xbcd74060	-0.026275814
214	0x3d455c9b	0.04818402
215	0x3cd0d8b7	0.025493963
216	0x3cfcf2d7	0.030877514
217	0x3afd41dc	0.0019321996
218	0x3cee9f06	0.029128563
219	0x3cdf350b	0.027246973
220	0x3cf75537	0.030192
221	0x3d7e66a1	0.062109593
222	0x3d169ed1	0.036772553
223	0xbbbeb68b	-0.0058201007
224	0x3c7cc0d8	0.015426837
225	0xbcd08b8c	-0.025457166
226	0xbcf26fda	-0.02959435
227	0x3d9fd354	0.078039795
228	0xbcd9dcc1	-0.026594521
229	0xbd392dd5	-0.045209724
230	0x3c1fec18	0.009760879
231	0x3d4a4c76	0.049389325
232	0xbcd8d38c	-0.02646806
233	0xbd639548	-0.055562288
234	0x3d2b238f	0.04178196
235	0x3cda087f	0.02661538
236	0xbdcba861	-0.09944225
237	0xbc3e0bb2	-0.011599468
238	0x3d0988fc	0.033577904
239	0x3d016458	0.031589836
240	0x3c3deffd	0.011592862
241	0x3d5d208d	0.05398612
242	0xbc9fa968	-0.019489959
243	0xbcdab3f8	-0.026697144
244	0x3d1f01d3	0.0388201
245	0xbc0369ef	-0.008020862
246	0x3c2b5d64	0.010459278
247	0x3d73dec3	0.059538614
248	0x3c9f4238	0.019440755
249	0xbcdf8458	-0.027284786
250	0xbc965117	-0.018349214
251	0xbcb80860	-0.022464931
252	0x3c6d25d8	0.014474355
253	0xbb3a72a6	-0.0028449683
254	0x3be1ca6e	0.0068905866
255	0x3c84791e	0.016171034

dec_fc2.bias f4 [512]
0	0xbd62f14c	-0.0554059
1	0x3d33c5b6	0.043889724
2	0x3cb16a1d	0.021657044
3	0xbd66be79	-0.056333993
4	0x3b563160	0.0032683238
5	0xbd8a0f39	-0.06741185
6	0x3d7c3bca	0.061580457
7	0xbc3413cf	-0.010991051
8	0x3d5060b2	0.050873466
9	0x3d5ff01c	0.054672346
10	0x3cb5c1ef	0.022187201
11	0xbd01c605	-0.031682987
12	0xbc6d8e0d	-0.0144992
13	0xbbf4d01b	-0.007471097
14	0xbcc9f0a0	-0.024650872
15	0xbd48533b	-0.0489075
16	0x3ca4c784	0.020114668
17	0x3d8ce7a6	0.06880121
18	0x3d3a3781	0.04546309
19	0xbca432d9	-0.020043777
20	0xbdcb9645	-0.09940771
21	0x3d53d73e	0.051718943
22	0xbced02b2	-0.02893195
23	0x3d9e9631	0.077434905
24	0xbcf0f175	-0.02941201
25	0x3d5d617a	0.05404804
26	0xbd3ec501	-0.046574596
27	0x3cf81025	0.030281136
28	0x3d25bb1d	0.04046165
29	0xbc4f0aaa	-0.01263682
30	0xbc8724e5	-0.016497085
31	0x3d47a883	0.04874469
32	0x3d63e79c	0.0556408
33	0x3d5bc848	0.0536578
34	0xbcbcd13b	-0.023048988
35	0xbc65525d	-0.013996688
36	0xbd155d7b	-0.036466103
37	0x3b2f59f4	0.0026756497
38	0x3be18d51	0.0068833013
39	0xbd167119	-0.036728952
40	0xbdce6a1d	-0.10078833
41	0xbd8a1115	-0.067415394
42	0x3d216c16	0.03940972
43	0xbd2dd826	-0.042442463
44	0xbd61a85c	-0.0550922
45	0x3ce4dc73	0.02793715
46	0xbdb3c603	-0.08778002
47	0x3d3bbf39	0.04583666
48	0xbd89eebb	-0.06734987
49	0xbbe17057	-0.006879847
50	0x3c02d11d	0.007984427
51	0xbd444101	-0.047913555
52	0x3b919ca3	0.0044437214
53	0xbd5f913a	-0.05458186
54	0xbda8e21a	-0.082462505
55	0x3d7c16a6	0.061545037
56	0x3c2f07ce	0.010683013
57	0xbd6082c9	-0.054812226
58	0xbd9e65e8	-0.07734281
59	0xbc777c2f	-0.015105291
60	0xbab2016c	-0.0013580746
61	0xbd4d633a	-0.050143458
62	0x3d77e5be	0.060521834
63	0xbd76bfcb	-0.0602415
64	0x3c8321b8	0.01600729
65	0xbd0446af	-0.03229397
66	0x3cfaa435	0.030595878
67	0x3d46b5c1	0.048513178
68	0x3d656127	0.056000855
69	0xbdbd95b2	-0.09257068
70	0x3d331504	0.043721214
71	0x3d89f2df	0.06735777
72	0xbd445c7a	-0.047939755
73	0x3bb75244	0.0055945236
74	0xbd21e200	-0.03952217
75	0xbc20a6c4	-0.009805385
76	0xbd5c406f	-0.053772386
77	0x3d8db7c3	0.069198154
78	0x3d3822cc	0.04495506
79	0x3cbe5eb8	0.023238525
80	0xbc5e560c	-0.01357032
81	0x3adc8a6c	0.0016825921
82	0x3c80b965	0.015713403
83	0xbc6b5b45	-0.014365022
84	0x3b08e695	0.002088939
85	0x3d67150c	0.056416556
86	0x3c54720c	0.012966644
87	0x3d8c3cf2	0.06847562
88	0xbd51a97d	-0.051187027
89	0x3b65e2cf	0.0035077815
90	0xbd58602f	-0.052826103
91	0x3d9ad38e	0.07559882
92	0x3bc4909a	0.005998683
93	0xbc05f5b0	-0.008176252
94	0x3d66f5f0	0.056386888
95	0xba807f8b	-0.0009803636
96	0xbd98723e	-0.07443665
97	0x3d13b5b4	0.036061957
98	0xbd6b1cfb	-0.057400685
99	0xbcbe223e	-0.023209687
100	0xbc9c511d	-0.019081647
101	0x3ca955a7	0.020670725
102	0xbbc5eade	-0.0060399612
103	0xbd86469c	-0.065564364
104	0x3b0268cb	0.0019898887
105	0xbd8251ec	-0.063632816
106	0xbd9eeede	-0.07760404
107	0x3d07731f	0.033068772
108	0x3c2a4316	0.010391971
109	0xbd7c6e51	-0.061628643
110	0xbd6fa43d	-0.05850624
111	0xbd484f01	-0.04890347
112	0xbb420d8f	-0.0029610132
113	0xbd9443e7	-0.07239514
114	0xbd4376aa	-0.04772059
115	0xbd36124c	-0.044451043
116	0x3d8c594d	0.0685297
117	0x3d416248	0.04721287
118	0x3ba2839d	0.004959537
119	0x3d2e5759	0.04256377
120	0x3d423868	0.047417074
121	0xbc107645	-0.00881726
122	0xbc68bc1d	-0.014205006
123	0xbb6226a1	-0.0034507888
124	0xbd8b26b3	-0.06794491
125	0xbd8df7b1	-0.06932009
126	0xbc57da01	-0.013174535
127	0x3d247b03	0.040156376
128	0x3cfd7abf	0.030942319
129	0x3d1df89b	0.038567167
130	0x3d5784bf	0.05261683
131	0x3d69f7af	0.057120975
132	0x3d898369	0.067145176
133	0x3d55e13c	0.052216753
134	0xbbc4ec90	-0.0060096458
135	0xb9ec9058	-0.00045120972
136	0xbd6ad588	-0.057332546
137	0xbd2e49d3	-0.042550873
138	0xbd8746b4	-0.066052824
139	0xbd9b886a	-0.07594378
140	0xbd02c0bc	-0.031922087
141	0xbd451d94	-0.04812391
142	0x3d4da353	0.050204586
143	0x3d5101e5	0.051027197
144	0x3d8929ff	0.06697463
145	0x3cb59e96	0.022170346
146	0x3af10772	0.001838906
147	0xbcd95287	-0.02652861
148	0x3a9ef8e7	0.0012128622
149	0xbdb6b87e	-0.08921908
150	0x3d1359ec	0.035974428
151	0x3d455762	0.048179038
152	0xbce47c5e	-0.027891334
153	0x3c9c8281	0.019105198
154	0x3c8a2b57	0.01686637
155	0xbc9973ec	-0.018732034
156	0xbd390f66	-0.0451807
157	0xbd79053d	-0.06079601
158	0xb9d1c965	-0.00040013637
159	0x3d584b5b	0.05280624
160	0x3c9743e0	0.018464983
161	0x3bfc24f8	0.0076948367
162	0x3d5d3e43	0.054014456
163	0x3d4cc175	0.049989183
164	0x3bb8aa18	0.005635511
165	0x3d4d2524	0.05008425
166	0x3d092ade	0.033488147
167	0xbd0c635f	-0.034274455
168	0xbd24cfe0	-0.040237308
169	0x3d7a5406	0.061115287
170	0xbd5bb74b	-0.0536416
171	0x3b8812d0	0.0041526332
172	0x3d6421a0	0.05569613
173	0x3be84967	0.0070888284
174	0x3ce65344	0.028115876
175	0xbd7d1191	-0.06178433
176	0xbd9742b7	-0.07385772
177	0xbd8ca792	-0.06867899
178	0x3d824724	0.06361225
179	0x3d4cdbe0	0.050014377
180	0x3d13a462	0.03604544
181	0x3d344135	0.0440075
182	0xbdb02a75	-0.08601848
183	0x3d2b35e3	0.041799437
184	0xbd2641a6	-0.04058995
185	0xbd2dcda6	-0.04243245
186	0xbb51115c	-0.0031901216
187	0x3d7c298b	0.061563056
188	0xbd0abc3a	-0.033870913
189	0xbdab8fde	-0.0837705
190	0xbd1f3220	-0.038866162
191	0xbd429946	-0.047509454
192	0xbb2ecd5b	-0.0026672694
193	0x3d8df455	0.06931368
194	0x3d51ca4a	0.05121831
195	0x3d829d03	0.06377604
196	0x3d86b34b	0.06577166
197	0xbda4494f	-0.08021795
198	0x3a258961	0.00063147215
199	0xbd863207	-0.06552511
200	0x3d55e9e5	0.052225012
201	0x3d147b97	0.036250677
202	0x3d0e8c3e	0.034801714
203	0xbd168c0e	-0.03675466
204	0xbd02c3f5	-0.03192516
205	0x3d5574a5	0.052113194
206	0xbd7a6f21	-0.061141137
207	0xbd098d7b	-0.033582192
208	0x3ce1e0f9	0.027573096
209	0xbd2f8142	-0.04284788
210	0x3b3443b0	0.0027506165
211	0xbd15c564	-0.0365652
212	0xbcbe36ac	-0.023219429
213	0xbd697f81	-0.057006363
214	0xbd8465a9	-0.06464703
215	0x3d850fb2	0.06497134
216	0xbd5971fe	-0.053087227
217	0x3cd39e8e	0.02583244
218	0x3d253f34	0.04034348
219	0xbcd0c255	-0.02548329
220	0xbd80a437	-0.062813215
221	0xbd9bf6f9	-0.07615466
222	0x3cd5f4ff	0.0261178
223	0x3d70ab4d	0.058757115
224	0xbd0564ac	-0.03256671
225	0x3c6fb148	0.0146296695
226	0xbdbb5ae1	-0.09148193
227	0xbcc3ee7f	-0.023917435
228	0x3d556f2a	0.052107967
229	0x3d7ead62	0.06217707
230	0x3cbaae6c	0.022788249
231	0x3d2aacd7	0.04166874
232	0x3cd2c6d6	0.025729578
233	0xbd23665e	-0.039892547
234	0x3d4fa68f	0.050695952
235	0xbbee8b83	-0.0072798147
236	0x3cd18e7a	0.025580633
237	0x3d5707c7	0.05249765
238	0x3c846d33	0.016165351
239	0xbd8a7adb	-0.06761714
240	0x3b7e5f2c	0.003881405
241	0x3c480c2d	0.012209934
242	0x3db14113	0.0865499
243	0x3c624149	0.0138095105
244	0x3cb1ce38	0.021704778
245	0xbd2614d2	-0.0405472
246	0x3d34df5d	0.04415833
247	0xbba13780	-0.004919946
248	0xbd8fc44f	-0.07019865
249	0xbd66cc06	-0.056346916
250	0x3d59eb02	0.053202637
251	0x3da1a721	0.078932054
252	0x3d9e326d	0.07724462
253	0x3d8e49a7	0.06947642
254	0xbdc28d19	-0.094995685
255	0xbd338b03	-0.043833744
