MUSC/checkpoints/t2t_ch_snr25.pth (torch, 528415 bytes, 4 tensors)

enc_fc1.weight f4 [128, 512]
000000 f1 10 3f 3c ba a4 f5 3c 23 46 37 b8 27 ea 28 bc
       0.011661754 0.029985774 -4.369592e-05 -0.0103097325
000010 4a ab 29 bc 17 d3 2b 3d bf 7c e5 bb 59 24 21 3b
       -0.01035578 0.041949358 -0.0070033963 0.0024588315
000020 97 aa 42 ba 7b bd 52 bb 63 aa d1 bc 1e 4f 08 bd
       -0.00074259326 -0.0032156396 -0.025593942 -0.033278577
000030 48 1f aa 3c 39 e1 9c bc b0 cc 70 bc 1c 27 30 bc
       0.02076687 -0.019150363 -0.014697239 -0.010751512
000040 9b 97 50 3c 6a 4f 08 3c 5f f1 d4 bc 10 63 3a 3d
       0.012731458 0.008319715 -0.025994001 0.04550463
000050 85 6b a2 bb 46 78 3d 3d 8d ec 2c bb 14 82 43 3c
       -0.004956665 0.04625728 -0.0026386112 0.0119328685
000060 bf 74 8e 3c 7c 09 e0 3b 82 dd b4 3c 6f 6b 0f 3d
       0.017389653 0.006837068 0.02207828 0.035014566
000070 ba 85 97 3b 09 a5 14 bd 01 f4 c8 3c d4 06 1b 3d
       0.0046240957 -0.036290202 0.024530413 0.03784831
000080 af 13 bb bd ff 5c 22 3d 8c 5f 1f 3d 4f c6 4f 3d
       -0.09134614 0.03963947 0.03890948 0.05072623
000090 b8 6f 90 3d 8e 60 55 3d 39 20 16 3d d7 46 df bc
       0.07052559 0.052094035 0.036651824 -0.027255459
0000a0 32 b3 63 3c 11 0c 7b 3c 3f 40 10 3d 49 82 af bc
       0.013897704 0.015322701 0.03521752 -0.02142443
0000b0 7b d8 c1 3c 97 9d 37 3d f0 fd 8c bb 6a 2e cb bc
       0.023662796 0.044828024 -0.0043027326 -0.024802405
0000c0 e5 1d 15 3d d5 f5 0f 3d 3d 9f 79 3d fe a6 73 bc
       0.036405463 0.035146553 0.060942877 -0.014871357
0000d0 84 8f 85 3d f6 44 ba 3b 2c 4c af 3c 98 9d 82 bd
       0.06521514 0.0056844903 0.021398626 -0.06377715
0000e0 35 6c f5 bb 7e 18 02 bc 62 b9 e5 3c 3b 72 c7 bc
       -0.007489706 -0.00794041 0.028042499 -0.024346462
0000f0 a8 8c 34 bd 77 d8 d0 bc 0f a7 b9 3c fd 02 db 3c
       -0.044079453 -0.025493843 0.022662668 0.026734823
000100 53 0f e2 3a 37 b5 6d 3d 3a d9 44 3d 78 18 be bc
       0.0017246999 0.058034148 0.048058726 -0.023205027
000110 ef e5 50 3c 17 6e 8c bd aa 4e 2b bd 29 1d 98 bc
       0.012750133 -0.068569355 -0.041823067 -0.018568592
000120 98 14 1b bd 37 bd 28 3c a5 78 c3 3c 83 db b0 bb
       -0.037861437 0.010299019 0.023861239 -0.0053972616
000130 1d 7a f7 bc d4 e7 d1 3c f7 18 8f 3c 5c 99 c0 bc
       -0.030209595 0.02562324 0.017467959 -0.023510627
000140 54 b8 47 3c 91 54 26 ba 90 53 0a bd 4e aa 3b bd
       0.012189943 -0.0006344999 -0.033771098 -0.045816712
000150 5d 0f d3 3b 6a f3 61 bb 93 bf 97 3b 0f 5d 94 3c
       0.0064410404 -0.0034477361 0.0046309917 0.01811078
000160 2a 2d 01 bd 74 75 a5 3c 50 f2 9a 3b 8b b5 6b bd
       -0.031537212 0.020197608 0.004728593 -0.05754618
000170 db e7 79 3b aa 26 45 3a 38 a1 5e 39 c1 c6 1b bc
       0.0038132581 0.0007520715 0.00021231628 -0.009507836
000180 6c 9d 0f 3d 5e 55 b9 bb 08 55 16 bc 77 ff e5 bb
       0.03506224 -0.0056559285 -0.0091755465 -0.007018979
000190 f8 06 9b 3c 44 91 c7 bc 46 c1 8f bb f1 6c 99 3c
       0.018924221 -0.02436126 -0.0043870537 0.018728705
0001a0 96 05 2a bc 29 1e 9c ba a1 50 99 bc db 6c 3d bd
       -0.010377308 -0.0011910844 -0.018715205 -0.04624639
0001b0 e0 c3 14 bb fe 2d 42 3d 60 d7 b1 3c 8e 33 9c bd
       -0.0022699758 0.047407143 0.021709144 -0.07627021
0001c0 ee 5b 9b bc 2d 6d be bc 2c e6 20 3c 9e 94 e5 bc
       -0.018964734 -0.023245418 0.009820502 -0.028024968
0001d0 64 90 0a bd c8 8f be 39 af 3a 64 bb e3 c8 53 3c
       -0.033829108 0.0003634675 -0.0034825017 0.012926313
0001e0 e3 fd 15 bd 16 18 2d 3b 6f c9 46 bd b1 51 cb bc
       -0.03661908 0.0026412061 -0.048531946 -0.024819227
0001f0 ca a9 0f bd 64 21 a3 bd 07 78 ba 3b 39 13 07 bd
       -0.035074033 -0.07965353 0.005690578 -0.032977317
000200 63 82 a4 bc d0 54 34 bc 17 05 ed bb cf 34 0d 3c
       -0.020081704 -0.011006549 -0.007233273 0.008618548
000210 59 55 07 bc 87 9a 57 3d 66 20 56 3d 4a a7 9e 3c
       -0.008260095 0.052637603 0.05227699 0.019366879
000220 78 03 07 bd 14 3d 5c bd c6 db a1 bd 1a a7 6a 3b
       -0.032962292 -0.053769186 -0.079032466 0.0035805167
000230 1b 6e a5 3a a6 c9 2a 3b e8 36 07 bd 01 d9 11 3d
       0.0012621315 0.0026060133 -0.033011347 0.03560734
000240 31 f5 8e bd 06 91 49 bc b7 9a 04 3d dd f8 43 3b
       -0.0698036 -0.012302643 0.03237411 0.0029902973
000250 49 47 1c 3d d3 77 44 bc 2b 6d 92 3c fb 93 5b 39
       0.03815392 -0.011991459 0.017874321 0.00020940595
000260 07 3b 07 bc 72 c4 6d 3d 6c 0b ef 3c c5 39 88 bc
       -0.008253819 0.058048673 0.029180251 -0.01662911
000270 88 16 45 bd ac 37 86 bd d4 1d b4 3c 8c a9 9c 3c
       -0.04811719 -0.06553587 0.02198688 0.019123815
000280 4d 0c 9c bb d7 50 3b 3d cb ef 4e bc 36 7a 1d 3d
       -0.0047622086 0.04573139 -0.012630413 0.038446628
000290 4c 87 83 bc 1a 6d d2 bc 8f ff 31 bd c5 a4 9c 3d
       -0.016055726 -0.02568679 -0.04345661 0.07648615
0002a0 c7 4f fa 3c 00 d7 20 bd 30 11 de bc 05 da 41 bc
       0.030555619 -0.03926754 -0.027107805 -0.011831765
0002b0 4a c8 dc bc 64 0c cf 3c 1c 2a b9 bd 69 e4 90 3d
       -0.026950974 0.025274463 -0.09041235 0.07074816
0002c0 7f a6 b2 bc 8f 00 94 3c 21 50 fb bd 5b 65 6e b9
       -0.021807907 0.018066673 -0.12271143 -0.00022735207
0002d0 55 2c 1f bd 19 3d 05 39 a1 d6 f0 3c 20 42 05 3d
       -0.038860638 0.00012706629 0.029399218 0.032533765
0002e0 54 8d ea 3b a7 54 7c bd c8 d2 78 3b 02 6b 24 3d
       0.007157961 -0.06160417 0.0037967432 0.040141113
0002f0 e6 a8 81 3c 1b 4f 9f bb 1f f1 86 bd fa 9f 91 3b
       0.015827607 -0.004861725 -0.06588959 0.0044441195
000300 26 ed 87 bb 68 a8 a3 bc 57 3e ea bc a0 aa 03 bd
       -0.0041481433 -0.019977763 -0.02859418 -0.032145143
000310 b4 88 6b 3d b1 cb 45 3c 22 91 94 bc 48 ea ed bc
       0.057503417 0.01207249 -0.018135611 -0.029042378
000320 ad 30 12 bc 8d 7a 66 3d c1 ee 35 bc 8c dd b9 3d
       -0.008922738 0.056269217 -0.011104287 0.0907546
000330 8e 18 ff bb 2c 69 01 3b 80 04 69 bd c4 6a db 3c
       -0.0077849096 0.0019746525 -0.056889057 0.026784308
000340 99 b2 d8 bc 67 e8 34 3d 46 9b 30 bd 2c 60 28 bd
       -0.02645235 0.04416695 -0.04311683 -0.04110734
000350 6d 33 04 3c 1d 28 9f bc 31 03 94 bd 69 08 34 3d
       0.0080689015 -0.019428307 -0.07227171 0.043953333
000360 c9 49 10 3d d8 73 12 3d 03 cd 4d bd b1 9c b6 3c
       0.035226617 0.03575501 -0.050244343 0.022291513
000370 01 8a 11 bd ba 09 fc 3c c4 22 79 3d 15 e8 f1 bb
       -0.035532 0.030766357 0.06082417 -0.0073824027
000380 9b 89 fb bc 58 0a 0a bc d6 aa 46 3c f9 50 c8 bc
       -0.030705264 -0.008425318 0.012125691 -0.024452673
000390 92 6d b2 bc 23 18 8a bc 04 6a 93 3d d1 98 97 3c
       -0.021780763 -0.016857212 0.07197955 0.018505486
0003a0 8b fd 3e bd 0b 99 72 bc bd d1 47 3c e6 b5 15 bd
       -0.046628516 -0.014806996 0.012196002 -0.036550425
0003b0 5f 73 bb bb 59 a2 8b bb bc 74 93 3a 1d ce b6 bc
       -0.0057205404 -0.0042612967 0.001125 -0.02231508
0003c0 51 e9 1e 3d ce fc 02 bd 40 96 4e bd a8 d1 43 bc
       0.038796727 -0.031979375 -0.05043626 -0.011951841
0003d0 fe eb 3e 3c ca 44 11 3a c0 18 58 3b 76 51 ba bd
       0.011652945 0.00055415614 0.0032973737 -0.09097569
0003e0 a9 93 0f 3d f5 92 b9 ba f6 22 4a bd eb 32 30 bc
       0.03505293 -0.0014158176 -0.049349748 -0.010754327
0003f0 c6 de c8 3c 63 fd b4 bc 48 0d 5c 3d 11 55 fc 3a
       0.02452029 -0.02209348 0.053723603 0.0019251426

enc_fc1.bias f4 [128]
000000 00 d7 65 3c f7 49 23 3d 39 e9 28 bc 79 0d 2e bd
       0.014028311 0.03986546 -0.010309511 -0.042493317
000010 4c 0a 95 3c 1e bd 85 bb b4 89 f3 bc ef 03 9a 3c
       0.018193386 -0.0040813824 -0.029728748 0.018800704
000020 c8 45 b5 bc b7 63 e8 bc ba 94 c8 bc 80 db 19 bd
       -0.022128 -0.02836786 -0.02448498 -0.037562847
000030 70 1d 32 bd c8 35 e7 3a 6b 30 9a bc a2 96 e0 bc
       -0.043485105 0.001763993 -0.018821916 -0.027415577
000040 4f 2f 7d 3b 70 a0 f8 bc 39 25 45 3d 7c fe 99 bc
       0.0038632934 -0.03034994 0.0481312 -0.018798105
000050 3e 39 97 bc c0 4b 2c 3d fd d4 17 bd 25 8b d5 bc
       -0.018459912 0.04206443 -0.037068356 -0.026067326
000060 8c 26 14 bd 0a a3 e9 bc 61 8f 34 3c de f4 e7 3c
       -0.036169574 -0.028520126 0.011020512 0.028315004
000070 eb 6a 94 bc 8e 2a 20 bd 12 97 e4 39 6b 56 17 3d
       -0.018117389 -0.039103083 0.00043600105 0.03694765
000080 b0 b2 7b bc b5 70 de 3c 9a 45 46 bb 93 d9 fe 3c
       -0.015362427 0.027153352 -0.0030253888 0.031109607
000090 74 ec 45 bc 65 06 3b bb a7 b5 4a bb 82 c1 0c 3d
       -0.012080301 -0.0028537747 -0.0030931027 0.03436423
0000a0 e1 95 19 bd 11 30 03 3c e4 bd 19 3d 5b 6a d8 3c
       -0.03749645 0.008007065 0.03753461 0.026417902
0000b0 f6 df b8 3a e0 0f 37 3d bc 6c d2 3c 98 32 be 3b
       0.0014104831 0.044692874 0.025686614 0.005804371
0000c0 55 77 f2 bc 99 a4 39 3a 3b e6 b2 ba 03 7d cc bc
       -0.029597918 0.0007081717 -0.0013648936 -0.024961954
0000d0 4e 49 2b bd 3f 6e 2d 3d f4 4b f8 bc d2 90 cf 3b
       -0.041817956 0.042341467 -0.030309655 0.0063344026
0000e0 56 dc 07 bb 93 3c ce 3c 85 21 90 bb 0a 40 5e bb
       -0.0020730696 0.025175368 -0.004398527 -0.0033912682
0000f0 05 52 01 3b 40 f5 cc 3c 75 1c 0d 3b d0 89 72 bc
       0.0019732725 0.025019288 0.0021531854 -0.014803365
000100 81 49 00 bd c3 88 59 3c b9 74 04 3d f0 87 df 3c
       -0.0313201 0.013277235 0.032337878 0.0272865
000110 4e 56 5a bb 8a 5f 19 3d 32 33 8e bc df 31 1d 3b
       -0.0033315602 0.03744463 -0.017358396 0.0023986024
000120 1d c9 4b bc a3 d0 aa 3c 41 70 8a 3c c1 20 1c bd
       -0.012438086 0.020851439 0.01689923 -0.038117174
000130 10 9b 01 3d 73 a6 c6 bc 7e 50 a6 3c 79 82 28 3d
       0.03164202 -0.024249291 0.020302054 0.041140053
000140 3f 62 d0 bc 3b b2 08 3d 78 c7 ff bc 1c 04 72 b9
       -0.025437472 0.0333731 -0.031223044 -0.0002308045
000150 3b 4d 0e 3c ae ee ec bc 1f 4f 4c bd 18 4d 29 3d
       0.008685405 -0.028922405 -0.049880143 0.041333288
000160 5e dd 38 3d a1 60 8d bc 4b fe 01 3d a5 be f0 bc
       0.045132987 -0.01725799 0.031736653 -0.029387781
000170 8d 57 47 bc 8d 8b 06 3c a0 bc 4b bb 12 c1 57 3c
       -0.01216687 0.008211982 -0.003108777 0.01316859
000180 07 37 03 3d 3b eb 1d bc 0a d6 92 bc 32 da a2 3c
       0.0320349 -0.009638603 -0.017924327 0.019879434
000190 fe 86 ad bc f2 6d 83 bc 2b 58 67 3c a6 53 a9 bc
       -0.021182533 -0.016043637 0.014120142 -0.02066977
0001a0 1d d1 f4 bc fc 78 a3 3c 1e 88 09 3d 2c c3 0d 3d
       -0.02988487 0.01995515 0.033577077 0.03460996
0001b0 e2 f7 e6 3c d1 46 bb 3b 41 23 33 bd d1 b0 d4 3c
       0.028194372 0.005715229 -0.043734793 0.025963219
0001c0 88 9e 0e 3d 85 0d 2b 3c a9 03 11 3c 17 65 61 bc
       0.034819156 0.010440235 0.00885097 -0.013757012
0001d0 ee 5f 03 3d 0a 2b a3 bc f9 c7 6c bc 56 e0 c0 bc
       0.032073908 -0.019917984 -0.014451974 -0.023544472
0001e0 ee 01 a6 bc c1 3e 0a bd 41 3c d7 3c e9 85 88 3c
       -0.020264592 -0.033751253 0.026273848 0.016665416
0001f0 43 49 9c 39 20 f1 f2 b9 a4 27 3c bd 16 9b b8 bc
       0.00029809223 -0.0004633749 -0.04593624 -0.022534888

dec_fc2.weight f4 [512, 128]
000000 5d 7d c4 3c 6e 58 bd 3c 4a e7 9f bc bb e3 a5 bc
       0.02398556 0.023113456 -0.019519467 -0.020250192
000010 4a 67 a1 bd 69 0d 7a bd a7 7a 87 bc 12 94 25 bc
       -0.07881029 -0.061047945 -0.016537977 -0.0101061035
000020 fc f9 69 bd e2 95 01 3d d9 86 e0 bd 6b e7 e4 bc
       -0.05712317 0.03163708 -0.1096322 -0.02794238
000030 78 de d5 bc ba ab bb 3d cd a3 db bc 7a 2c 56 bd
       -0.026107058 0.091636136 -0.026811505 -0.05228851
000040 4d 90 9c 3c ef 22 11 3d 1b 46 d9 bc 2a 34 01 3d
       0.019111777 0.035433706 -0.026522687 0.03154389
000050 d7 ac 3c 3c b1 93 57 bc 00 25 27 3c 48 ef cd bc
       0.011515818 -0.013157771 0.010201693 -0.025138512
000060 ec 9b 5d bd 42 8e ae bc f3 b5 79 3d 97 5f b2 3d
       -0.054103777 -0.021308068 0.060964536 0.087096386
000070 23 32 40 bd ef 4a b1 bd 42 48 3e 3c e1 9f ab 3d
       -0.046922814 -0.086568706 0.011613907 0.08380104
000080 68 43 2b 3d 38 97 81 bc 82 46 e2 3b a8 f6 6c bd
       0.04181233 -0.015819177 0.006905378 -0.057852417
000090 e7 48 aa bd 98 a7 58 bd 15 67 a2 bd 2a fc 61 bd
       -0.08314686 -0.052894205 -0.079298176 -0.055172123
0000a0 29 75 a4 3c 6a 9b 95 3d 93 29 34 3c 46 18 1d 3d
       0.020075398 0.073050335 0.01099624 0.038353227
0000b0 2a ea 8c 3d 7a e6 37 3d 96 a8 56 bd f6 8d 8c bc
       0.06880601 0.044897534 -0.05240687 -0.017157536
0000c0 9d ef 12 3b 29 d5 8c bd 47 82 e3 bd 1d 52 81 bd
       0.0022420653 -0.068765946 -0.11108833 -0.0631449
0000d0 7a 26 e9 b9 51 26 86 bc 99 00 aa bc 6d ee ae bd
       -0.0004446989 -0.016375693 -0.020752238 -0.0854157
0000e0 36 48 79 bd 57 7c 22 bd 92 33 24 bc 61 3c fd bb
       -0.06085988 -0.03966936 -0.010022061 -0.007728145
0000f0 46 1e 6f bd 04 ed 80 bc 59 fd 1e 3d ad 58 98 bc
       -0.05837848 -0.015738018 0.03881583 -0.018596971
000100 80 e3 74 3d 4f b2 60 3d 9a b8 93 3d 28 9c 93 bc
       0.059787273 0.05485755 0.07212944 -0.018018797
000110 dc db b2 3d d2 36 fb 3d ac 9d 7a bd c7 cf cd 3c
       0.08733341 0.122663155 -0.061185524 0.02512349
000120 e5 cf 35 3d d3 29 0d bd 97 41 a9 bc 37 fa f8 3c
       0.044387717 -0.034463715 -0.020661158 0.03039275
000130 4d 80 bf 3d 72 f6 a2 bc 4d 50 a0 bc 2d ae 9d bc
       0.09350643 -0.019892905 -0.01956954 -0.019248093
000140 a1 b9 40 3d b6 a1 49 3c 65 96 cc 3c 65 89 2f 3d
       0.04705203 0.012306621 0.024974057 0.04285564
000150 ad 18 29 bc 6d ef 8b bd 16 b4 e8 bc 5f 27 d5 bc
       -0.010320825 -0.06832776 -0.028406184 -0.02601975
000160 b8 bd 44 3c 15 d3 48 bd 0f d5 48 3d 5e 80 dd bd
       0.012008123 -0.04902943 0.049031314 -0.108155
000170 2c e5 06 3c 50 e8 33 3c 27 da d0 3c 81 69 78 b9
       0.00823335 0.010980681 0.025494648 -0.00023690426
000180 f5 2a 75 3b c3 e5 e0 bd 93 5f 17 3d 83 32 4b 3c
       0.0037409638 -0.109813236 0.03695638 0.01240218
000190 24 65 9d bc fb da 16 bd 79 16 2d 3d 9c 04 44 3d
       -0.019213267 -0.03682993 0.04225776 0.04785596
0001a0 0f 13 ad 3c ad 26 df 3c d7 7b a4 bd fc 9a cf 3c
       0.021127252 0.027240122 -0.08031433 0.025342457
0001b0 ae 54 a6 bd cf 84 c4 3c 28 fb ac bc 6f d8 22 3d
       -0.0812162 0.02398911 -0.021115854 0.03975719
0001c0 2c f7 be 3d 86 7a b7 bc 4d b6 b6 3d 29 4f 72 3d
       0.09324488 -0.02239729 0.0892149 0.059157524
0001d0 d7 11 6d 3d b1 f8 3b 3e 46 6e aa 3b c3 3f 33 bd
       0.05787834 0.18356587 0.005201134 -0.04376198
0001e0 4e c8 6e bd c4 a3 c9 3d 4d fa aa 3d 9b 94 29 bd
       -0.058296494 0.09845689 0.08348522 -0.041401487
0001f0 21 b4 a6 bd 5b 6a d4 bc 68 87 1c bd 1a d9 9b 3d
       -0.081398256 -0.02592962 -0.03821507 0.07609768
000200 80 1c 19 3d 80 fd 4d ba cd 01 a4 bb b9 d7 8e 3b
       0.037380695 -0.0007857904 -0.0050050975 0.0043592122
000210 30 93 24 bd 2d d7 1d 3d de 99 a1 bb 8f 23 79 bd
       -0.04017943 0.038535286 -0.0049316725 -0.060824927
000220 11 d7 d4 bb 84 8a c0 3d bf 5d 15 3d 7f 56 a7 3d
       -0.0064953645 0.0940142 0.036466356 0.08170795
000230 fe 33 a9 3d 9f 39 a5 bc 8f 75 9b bb b5 7b 46 bd
       0.0826187 -0.020169077 -0.0047442387 -0.04845782
000240 d1 70 c8 bd da 64 1c 3d 7f f2 14 3d 06 b6 b9 3c
       -0.09787143 0.038182117 0.036364075 0.022669803
000250 22 15 0c be e6 0a 88 3c bd 98 da ba 45 c2 76 bd
       -0.13679937 0.01660676 -0.00166776 -0.060243864
000260 97 8c c3 3b 77 05 0f bd a1 d4 5a 3d ea ab a4 bd
       0.0059676873 -0.03491732 0.053425435 -0.080406025
000270 3c ce 89 3d a7 50 42 3d 37 04 a5 bc 05 5b 8d 3c
       0.06728789 0.047440197 -0.020143611 0.017255316
000280 95 72 a7 bb 2a 15 f2 bc 80 2c be bc 0e 21 80 bd
       -0.005110095 -0.029551107 -0.023214579 -0.06256305
000290 f1 9d 12 bb 02 d6 2e 3d 2b 38 53 3c 8a b6 b5 bd
       -0.0022371972 0.042684563 0.012891809 -0.08872707
0002a0 f2 c7 23 3d 1c cc cc bc 11 19 57 3d ec 14 b2 3d
       0.039985605 -0.02499967 0.05251414 0.08695397
0002b0 73 a3 e6 bc 87 95 82 3d e1 1b 3c 3c 59 9e 90 ba
       -0.02815411 0.06376176 0.011481256 -0.0011033519
0002c0 7f cf 61 bd 0f f9 4e bc 5b 44 ad 3d 43 e6 c9 3c
       -0.055129524 -0.012632622 0.084603034 0.02464593
0002d0 1b d8 bb bd 5d 01 9d bd 55 e4 6a bd ce 39 8d 3c
       -0.09172078 -0.07666276 -0.05734666 0.017239477
0002e0 48 95 4a bd b4 cb 66 bd 66 a0 5e 3c 5b a2 be bc
       -0.049458772 -0.05634661 0.013588047 -0.023270776
0002f0 aa 87 a2 3d 0b da 12 3d 44 6c 01 3d 57 29 c0 bc
       0.07936032 0.035852473 0.03159739 -0.023457212
000300 6e 5c 37 3c f5 72 ce bc 8f 1e a8 3b 4f ef 97 3d
       0.011191471 -0.0252013 0.005130596 0.07418691
000310 69 75 5a bc 11 99 b5 bc 22 7d 6c 3d e8 e7 0d 3d
       -0.013333657 -0.022167714 0.057736523 0.03464499
000320 e1 60 19 bc f3 df 61 ba 20 de 7a bd 8a 46 4a bd
       -0.009361477 -0.000861644 -0.06124699 -0.049383678
000330 d9 39 3d bd 21 58 15 bd 4e 7a 5e 3d f4 1d 96 3a
       -0.046197746 -0.036461 0.054315858 0.0011453019
000340 20 05 2c 3d 97 e7 40 3c 6a 65 cb 3c 89 68 8d 3c
       0.041997075 0.011773965 0.024828631 0.01726176
000350 ab 0f 88 bc 4f 74 3f bd 88 c8 76 3c 04 19 83 bd
       -0.016609034 -0.04674178 0.015062459 -0.06401256
000360 47 44 0d bc 01 c7 e9 bc 5e 93 20 bd d3 22 02 bd
       -0.008622236 -0.028537275 -0.03920304 -0.031771492
000370 72 33 ea 3c e3 ef 50 bd 88 ef a1 bb a5 8c 4e 3b
       0.028588984 -0.051010024 -0.0049418844 0.0031516936
000380 3d 93 a3 3c 74 dd 84 3d 8c fa 95 bd 21 9f 8f 3d
       0.01996767 0.06487551 -0.07323179 0.07012773
000390 62 c1 1d 3d 85 22 d6 bc 8b 86 10 bd 53 c8 60 3d
       0.038514502 -0.026139507 -0.03528456 0.054878544
0003a0 17 65 02 bd 73 77 8d 3d 91 9e a6 3c e1 3a e6 bc
       -0.031834688 0.06907549 0.020339282 -0.028104248
0003b0 2d da 81 bd 5b ab 7e 3c c1 aa 21 3d 83 b4 80 3d
       -0.06340442 0.015543784 0.039469484 0.0628443
0003c0 30 33 d7 3d cd aa 2b bd b8 fa 1a 3b dd d8 3b 3d
       0.1050781 -0.041910935 0.0023647975 0.045861114
0003d0 d8 c8 72 3d ed f6 9b bc 64 25 79 bc 35 4d 18 3b
       0.05927357 -0.019038642 -0.0152066685 0.0023239378
0003e0 40 ab a2 3c 70 a9 8f bd 50 5e 42 bb e8 91 48 3d
       0.019857049 -0.070147395 -0.0029658265 0.048967272
0003f0 b7 1e 0e bc a1 fe 53 bc d5 7b 64 3b d0 85 de 3b
       -0.008674315 -0.012939126 0.0034863849 0.006790854

dec_fc2.bias f4 [512]
000000 c8 9b 74 bd 01 0b 47 3d df 18 5c 3d 7e d8 96 bd
       -0.059718877 0.04859448 0.053734656 -0.07365511
000010 7a a1 36 3d bf 0c 90 bd 1c 79 2d 3c fe 53 3f 3d
       0.04458759 -0.07033681 0.010587957 0.04671096
000020 ec ce 62 3d 0e 0a 04 3c ba 0b 48 3d fc 13 a9 3c
       0.055373117 0.008059038 0.04883931 0.020639412
000030 9b 30 a6 3c 13 b0 1f 3c f4 88 f0 bc 70 d4 65 3d
       0.020286849 0.009746569 -0.02936218 0.0561108
000040 fc 09 16 3c e5 c4 3f 3d 21 ff 5a bd 3b b8 ed 3c
       0.009157654 0.046818633 -0.053465966 0.029018512
000050 1b 11 6e bd 9c 73 9e 3b 93 24 d2 3b 97 4a 50 bd
       -0.05812178 0.004835559 0.0064130514 -0.050852384
000060 72 e6 cb bd 55 d0 8c bd 96 2e 48 3d 81 3c f2 bc
       -0.09956063 -0.06875674 0.048872553 -0.029569866
000070 10 5c a5 bc 6f e8 ee bc 29 0d 86 3c 7a c7 7f 3d
       -0.0201855 -0.029163567 0.016363697 0.062446095
000080 f2 4d b7 3a 01 01 19 3d cc 0a 7d 3d bd 67 76 bd
       0.0013985022 0.037354473 0.061777875 -0.060157526
000090 e1 10 b0 bd 65 0b 82 bd 22 06 b4 bd a1 e7 fa 3c
       -0.085969694 -0.063498296 -0.08790232 0.030628027
0000a0 b2 b1 c5 bd 8a 7a ea 3c c9 a2 34 3d 74 49 1e 3d
       -0.09653033 0.028622884 0.044100557 0.03864427
0000b0 f8 00 27 3d 34 78 bf 3c c0 ed 4c 3c d0 cc 0f 3d
       0.04077241 0.023372747 0.012507856 0.035107434
0000c0 e8 db 58 3d 76 ab 84 bb 8c 78 7e bd f1 71 00 bd
       0.052944094 -0.00404876 -0.06212668 -0.031358663
0000d0 fd 28 06 bd 04 f8 3a bd 70 01 b9 bc 49 06 87 bd
       -0.032753933 -0.045646682 -0.022583693 -0.06592996
0000e0 52 e8 4c 3d 4f 38 ab bb 3f d9 98 bd c0 99 c7 bd
       0.050026245 -0.0052252184 -0.074633114 -0.09746122
0000f0 9b fe 17 bd d6 1a b8 bd a4 31 99 bc 2b 6d 71 bd
       -0.037108045 -0.089894935 -0.018700428 -0.058942
000100 72 b7 2a 3b 9d cb 2d bd 99 ff b1 bc 4c e9 5f 3d
       0.0026049283 -0.04243051 -0.021728324 0.05466585
000110 96 0a 57 3a da 7b 9f bd 03 aa 89 3d 5c 26 dd bb
       0.00082031765 -0.07787295 0.0672188 -0.0067489576
000120 67 c6 f1 3c 0a d5 05 bd 2d 5b 62 bc 96 e3 18 3c
       0.02951355 -0.032673873 -0.013815683 0.0093316045
000130 98 a9 01 3c 9a 09 6b bd 93 69 22 3d 20 0b b1 3c
       0.007913969 -0.057382204 0.039651465 0.02161175
000140 d7 f1 bc bc 2e 03 a5 bd 39 79 7c 3d d8 b3 de 3b
       -0.023064537 -0.08057247 0.061639044 0.0067963414
000150 68 f8 58 3d 0d 66 b2 3c e4 84 06 bd 73 74 8b 3c
       0.052971274 0.021777177 -0.032841578 0.0170233
000160 b6 39 8c 3c b6 32 02 bb e6 a5 b0 bd 14 52 f3 bc
       0.017117362 -0.0019866652 -0.086253926 -0.029702224
000170 77 c8 2c bd 38 32 75 bd 2f f2 43 3c 84 c9 76 3c
       -0.042183366 -0.059862345 0.011959597 0.0150626935
000180 05 5e 86 3d 99 bd 18 3d 8e 02 e8 bc 11 52 8c bd
       0.065609016 0.03729019 -0.02832153 -0.068515904
000190 b5 6f ee 3c 7c dd 4f 3d 9f cd a8 bd e0 2e cd 3c
       0.029106 0.050748333 -0.08242344 0.025046766
0001a0 e2 b3 05 3d 44 22 81 bd 4c 9e 69 3d aa e1 89 3d
       0.032642253 -0.06305364 0.05703573 0.06732495
0001b0 c0 fa 5b bd c0 7d c0 3c 9d 43 d2 3b bf b1 af ba
       -0.05370593 0.023497462 0.0064167515 -0.0013404413
0001c0 a5 43 d6 bd 5e 0b 8b 3c 10 59 b6 3b 5e d3 83 bd
       -0.10462121 0.016973194 0.0055648163 -0.064367995
0001d0 79 9a ab bc 75 2e 61 bd 2a 45 9b bd 5e c4 90 3d
       -0.020947682 -0.054975946 -0.075815514 0.07068704
0001e0 cc 7e 4d 3d 1a 4c a8 bd b1 67 81 3d a8 d0 0c 3c
       0.05016975 -0.0821764 0.06318606 0.008594669
0001f0 fd 5d 5b bd 2a ea 68 bd c7 44 d8 bb cd 56 12 bd
       -0.05355643 -0.05686394 -0.006599996 -0.03572731
000200 85 bc 02 3d 36 34 8e 3d 56 7f 82 bc 1b 26 58 bd
       0.031918067 0.06943552 -0.01592986 -0.052770715
000210 32 ed e9 bb 71 eb 14 3c f8 33 64 3d d5 a3 80 3d
       -0.0071388716 0.009089337 0.055713624 0.062812485
000220 b5 d3 17 3d f8 b4 49 bd 07 97 e0 bc 4a a6 25 bd
       0.037067134 -0.04924485 -0.027415765 -0.04044179
000230 71 a2 7e bd 4b eb f7 bc ac ce 58 3d bc 88 b5 3c
       -0.062166635 -0.030263564 0.052931473 0.022159927
000240 2c b7 20 bd 13 3c aa bd 2e 98 45 bc f6 7a ec bc
       -0.039237186 -0.083122395 -0.012060208 -0.028867226
000250 d9 79 ad bd 4e eb cd bc 5a d3 39 bd ac fe 97 bd
       -0.08470506 -0.025136616 -0.045367576 -0.07421622
000260 c8 e1 23 3d 13 c9 1e bd c8 43 18 3d 60 49 9c 3d
       0.040010244 -0.038765978 0.037174016 0.07631183
000270 6f dc aa bc a2 9b 26 3d 46 d9 25 3d cd ca 85 bd
       -0.020857064 0.040675767 0.04049041 -0.06532822
000280 93 47 8d 3d 3d af 3f 3d 4c b0 e4 bc 76 b2 e5 bc
       0.06898417 0.04679798 -0.027916096 -0.028039198
000290 b3 c2 68 38 e4 bb b5 bc 19 3c 4e 3d 4a 24 c7 bc
       5.5494438e-05 -0.02218432 0.050350282 -0.024309296
0002a0 4e b0 1a bd fb 7b 43 3d 78 ae 77 3c 65 9a fb 3c
       -0.037765794 0.04772566 0.01511728 0.03071327
0002b0 3b af 05 3a 70 db f0 3c 0c 39 8c bd 1f 51 43 3c
       0.0005099659 0.029401511 -0.06846818 0.011921196
0002c0 ba c5 8f bd 20 bb 05 bd 08 23 8f bd c1 1c 58 3d
       -0.07020135 -0.03264916 -0.069891036 0.052761797
0002d0 f6 d0 fa bc 7c a6 c2 bc d8 be f6 3c 50 ec a0 bd
       -0.030617218 -0.023761027 0.030120298 -0.07857573
0002e0 19 e3 26 3d d2 da 9e 3d 33 bf ad 3d 93 33 5c bc
       0.04074392 0.077565804 0.08483734 -0.013440031
0002f0 e8 a3 16 bc 6b 95 08 bc 2a 2f f9 bc 78 f1 09 3c
       -0.009194352 -0.008336405 -0.030417997 0.008419387
000300 3f fd 9c 3c 04 6c 73 3d fc 50 07 bd 71 f6 47 bd
       0.019163726 0.059429184 -0.033036217 -0.04881901
000310 5c 7c 91 3c 7d 5c 72 bd d9 be be ba d4 b1 b5 bc
       0.017759494 -0.059170235 -0.0014552727 -0.022179522
000320 64 f5 b9 3a f2 ab 99 bc a6 b0 d2 3c e3 eb 32 3d
       0.0014187512 -0.018758748 0.025718998 0.04368199
000330 bd 7a a4 bd 09 f2 2d 3d 03 6d 82 bd ab 84 57 bd
       -0.08031223 0.04246715 -0.063684486 -0.052616756
000340 fb af 64 bd b7 f0 95 3c 4e 62 19 3d 69 cc 95 3c
       -0.05583189 0.018303258 0.037447266 0.018285947
000350 6f 91 8b 3d ef 3e 94 3c 0f 9d 18 3b cb 49 3a bd
       0.06814849 0.018096415 0.0023286974 -0.04548053
000360 0c 36 64 bc 98 4e 11 3c c6 d1 e8 bc fa cf 02 3d
       -0.013928901 0.008868836 -0.02842034 0.031936623
000370 ff 52 64 bc 08 e4 c1 bd be 28 04 3d 4e b3 d3 bd
       -0.013935803 -0.09467322 0.032265417 -0.10336934
000380 be 87 9c bd 55 48 90 3d 12 c0 89 bd 50 bc c7 bd
       -0.07643078 0.07045046 -0.06726088 -0.09752715
000390 27 a6 82 bc 3b d6 c5 bb 4c bf 02 3d 9e 97 9a bc
       -0.015948368 -0.006037501 0.031920716 -0.018871125
0003a0 ab d9 33 bd 46 c9 6e bd ab bd a4 3c d7 b8 75 3c
       -0.043908756 -0.058297418 0.020109972 0.0149976825
0003b0 6c 00 51 3d 81 50 1f bc 1a 39 cb bb 74 6f a8 3d
       0.051025793 -0.0097237835 -0.0062018754 0.08224383
0003c0 9c b1 4a 3d 44 72 e7 3c ba ae 0f bd 4e e0 9b bd
       0.049485788 0.028252728 -0.03507874 -0.07611142
0003d0 cd 8e 91 bd ba ef 3f bd 75 ca 07 bd 30 33 de 3c
       -0.07107315 -0.04685948 -0.033152062 0.027124017
0003e0 87 b1 e0 bc f1 ce ff bc 50 bb c0 bd 9e 3d 1c bc
       -0.027428402 -0.031226607 -0.09410727 -0.009536175
0003f0 5d ec d2 3c 32 e7 1d bc 58 0c 45 bd 0e e1 3d 3d
       0.025747472 -0.009637641 -0.048107475 0.046357207
