MUSC/checkpoints/t2t_ch_snr10.pth (torch, 528415 bytes, 4 tensors)

enc_fc1.weight f4 [128, 512]
000000 b8 b0 d8 3c 8a f6 92 3c 89 0e da 3c 0e 5c e5 bd
       0.026451454 0.017939825 0.026618259 -0.11199199
000010 ae f7 62 3d 3b a5 53 3d dd 37 9a 3b 36 d3 13 bc
       0.055411987 0.051671248 0.0047063665 -0.009022525
000020 4b 69 7d 3c 79 51 62 bc 98 e5 a7 3c 69 78 de 3d
       0.015466998 -0.01381337 0.020495221 0.1086281
000030 83 5c 15 3d bc 7d 31 bd 30 4d 0b bc 13 0a 6c 3d
       0.03646518 -0.0433328 -0.00850229 0.057626795
000040 4f ad bb bc b9 0a 78 bd 3d cf a3 3c 27 cf 1b bd
       -0.022909788 -0.0605571 0.01999628 -0.038039353
000050 58 a7 8b bd 8c 5d da 3c 04 03 95 bd cb ae cf bb
       -0.06819028 0.026655935 -0.07275966 -0.0063379756
000060 7b 7d ed 3c 36 38 9b 3c bb 48 0f be 5e 57 43 bd
       0.028990498 0.018947702 -0.13992588 -0.04769074
000070 70 5c a6 3d 42 37 c5 bb cf b6 a3 3d 5b 71 c7 3d
       0.081231 -0.00601855 0.07993852 0.09738418
000080 8f 18 c2 bb 84 c8 b1 3b cd da 12 be 9c 26 33 bd
       -0.005923338 0.0054255147 -0.14341278 -0.043737993
000090 a0 e3 a5 3c 0b 92 64 3c fd 58 e7 bc 32 30 d5 bc
       0.020250142 0.013950835 -0.028240675 -0.026023958
0000a0 45 64 5e bc 0a 17 e6 bc 3c de 2b 3d db b7 05 bc
       -0.013573711 -0.028087158 0.041959986 -0.00816151
0000b0 2f 3c a4 3d 3b ed 50 bb 85 c8 42 3d 9d 9e 5d bd
       0.080192916 -0.0031879682 0.04755451 -0.054106344
0000c0 ba d4 1a bd bb 09 ff 3c 5c e3 d8 3b a8 ac 41 3d
       -0.037800528 0.03113257 0.0066189 0.0472838
0000d0 e7 bc 98 bd db 0c c5 3b 57 8a b6 bd d0 bc 47 bd
       -0.07457905 0.0060134954 -0.08913105 -0.04876405
0000e0 48 0f d7 3d f6 8f b4 bc b4 80 7d 3d 8b bd ad 3d
       0.105009615 -0.022041302 0.06189032 0.08483418
0000f0 43 c0 da 3c 1b fb ba 3b 88 c9 22 bd d8 03 f7 3c
       0.026703006 0.0057062036 -0.039742976 0.0301532
000100 de 43 61 bd 6e 7a 6d 3c 60 39 02 bd 06 7e 6b 3b
       -0.054996364 0.014494522 -0.031793 0.003593327
000110 25 f8 1b bd 2a 8c 14 bc 56 3c 40 bd 01 dc a2 bb
       -0.038078446 -0.009066621 -0.04693254 -0.004970074
000120 84 df b9 bc d4 01 3c 3d 39 ab b5 3d 95 52 a9 3c
       -0.022689588 0.04590018 0.08870549 0.020669261
000130 05 46 49 3d 01 4f f7 3d 94 2b ac 3d 9c ec d9 bd
       0.04913904 0.12075616 0.08406749 -0.10640833
000140 19 c6 03 3d dd 26 56 3d 37 bb 58 3d f5 36 cd 3c
       0.032171343 0.052283157 0.052912917 0.02505062
000150 1c 13 97 bd 27 fb df 3d 9b b9 56 3c cb 1c 4e 3c
       -0.07376692 0.109365754 0.013105775 0.012580107
000160 8b 49 ff 3d 5c d7 84 bd 4e 84 33 3e 05 bf 83 bd
       0.12465199 -0.06486389 0.17530939 -0.064329185
000170 07 df a2 bc 16 b9 c2 bb 45 6e fa 3c 59 9a 53 bc
       -0.019881738 -0.005942474 0.030570159 -0.012915217
000180 f7 50 1b 3b ad a7 ef 3b 26 e4 56 bd cd 31 6e bc
       0.0023699382 0.0073136897 -0.052463673 -0.014538241
000190 2f 3a 58 3d 1b 0b b6 3d 89 50 68 bc 78 33 88 3c
       0.052789863 0.08888837 -0.014179357 0.016626105
0001a0 2a 6c 91 bd 3f 3f a5 3d c7 71 5c 3d 37 4d 8c bd
       -0.07100709 0.08068704 0.053819444 -0.06850665
0001b0 1f 18 bd bd e8 ae 44 3d 59 cc 14 3c df d3 fb bd
       -0.09233116 0.048018366 0.009081923 -0.122962706
0001c0 8d a0 69 bd ed 3b 29 3e 7f ba a1 bd 12 cc 63 bd
       -0.05703788 0.16526766 -0.078968994 -0.05561454
0001d0 07 4e 7d 3b 4d 24 23 bd 1c 12 de bc 79 7d 03 3d
       0.0038651244 -0.03982954 -0.027108245 0.032102082
0001e0 a5 23 82 bc c2 6a fa bc 41 e4 8d bd 6d 74 3f bd
       -0.015886137 -0.030568484 -0.069283016 -0.04674189
0001f0 d0 e8 80 3d 0d 20 a0 bc cf da 23 bd 4a 85 dd 3c
       0.062944055 -0.019546533 -0.040003594 0.027041096
000200 d3 07 62 3d 37 fb 57 3c f5 b0 40 bd f0 3a 67 bd
       0.055183243 0.013182453 -0.04704376 -0.05645269
000210 fb be 62 3c 0e 53 d2 3d 8d ec 9e 3d 97 94 af 3c
       0.013839479 0.10269748 0.07759962 0.021433158
000220 f5 e5 5d bd 05 96 29 3b 7c a2 1e bd 8e af e5 3b
       -0.054174382 0.0025876772 -0.038729176 0.007009453
000230 ae be 8f ba 69 af 66 bd 35 ea 84 3c f3 b2 60 3d
       -0.0010966861 -0.056319628 0.01622496 0.05485816
000240 a9 10 8b bd 09 dc c1 3c 98 e5 b1 ba 2a cf 33 bc
       -0.06790287 0.023664491 -0.0013572453 -0.010974685
000250 66 1b c3 3b d8 6b a7 bb 6b 0c ab 3c c6 79 8c 3d
       0.005954194 -0.0051092915 0.020879945 0.06859164
000260 49 cc c1 ba 6e 8f 43 be 6f 24 48 3c ad 85 0e 3c
       -0.0014785613 -0.19097683 0.012215718 0.008698863
000270 64 4a 11 bd 5a 84 95 3c 3e 2c 8b bd 04 45 6a 3c
       -0.035471335 0.018251587 -0.06795548 0.014298681
000280 82 09 48 3d f9 34 9f bd d0 ef c9 3b 43 c4 03 be
       0.048837192 -0.077737756 0.006162621 -0.12867837
000290 9b a6 5d bc e3 91 0f bc 5d a2 98 bd ac 2a 02 3e
       -0.013528491 -0.008762809 -0.07452843 0.1271159
0002a0 6a 43 db bc 9b b0 7c 3d 2b 64 51 3d dc 6b f7 3b
       -0.026765544 0.06169186 0.05112092 0.0075506996
0002b0 5e 5d 0e 3c 58 5d a9 3d 26 c3 a9 3d 05 8c e0 3c
       0.008689253 0.08269757 0.08289175 0.027410517
0002c0 38 f9 89 3c ae 78 45 bd 60 25 29 3d ab b1 36 3d
       0.01684247 -0.048210792 0.04129541 0.04460303
0002d0 39 1d 1e 3d 09 0e b4 3c 47 56 2a bd c0 23 19 3c
       0.038602088 0.021979349 -0.041586187 0.009346902
0002e0 23 a5 09 be 31 25 26 bd 46 0b 49 3c 39 d3 5a 3e
       -0.13441901 -0.040562812 0.012270754 0.21369638
0002f0 bb 64 8c 3d 9a b4 f9 3c 3f 6c f1 3d 7e 1b df bd
       0.0685515 0.030481625 0.117882244 -0.108939156
000300 bd 1b 51 3d a9 5e bd 3c da 00 07 3d 75 7d 09 3c
       0.051051844 0.023116427 0.032959796 0.008391728
000310 e3 66 ec bb 7c 0f 85 bd 1e 6f 94 3c de aa 59 3d
       -0.0072144135 -0.06497094 0.018119391 0.053141467
000320 b2 91 0c bd 11 db 35 bc 7a 00 b8 3d 22 1b b7 bd
       -0.034318633 -0.011099593 0.08984466 -0.08940722
000330 23 f5 d7 3c 69 8d df bc 75 2b f9 bd c9 68 e8 bb
       0.026362007 -0.02728911 -0.12166492 -0.0070925695
000340 ae 0d a7 3c c8 d7 eb 3d 30 41 49 3d 19 ac 66 3d
       0.020392265 0.115157664 0.049134433 0.05631647
000350 e8 89 25 3d ce 6a 2b 3d a5 f8 ff bc 1f 3e 15 3d
       0.04041472 0.041849904 -0.031246493 0.036436196
000360 68 e5 0e 3d 19 62 11 be 05 a0 71 3d a0 c9 97 bc
       0.034886748 -0.14197578 0.058990497 -0.01852876
000370 a9 b9 c4 3d 6a 90 e2 3c f5 66 09 bd ad 22 dd 3c
       0.09605724 0.027656753 -0.033545453 0.026994074
000380 99 48 5f 3d f2 70 26 bd 7b 34 18 bd 91 74 25 bc
       0.054512594 -0.040635057 -0.037159424 -0.010098592
000390 9a fb ac bc cd 68 bc 3d 8d 9f 0e ba ed 76 64 3b
       -0.021116067 0.09199677 -0.0005440645 0.0034860924
0003a0 ae 8e 59 3c 25 41 f1 bc 29 fe 3d bc 97 b7 d2 bd
       0.013278646 -0.029450009 -0.011596241 -0.10288923
0003b0 c6 7e 71 3d d9 2a 98 bd f2 87 4b 3d 18 a2 23 bd
       0.05895879 -0.074300475 0.049690194 -0.039949507
0003c0 b2 21 6d bd 14 b9 98 3d 37 21 73 3d ce 03 5c 3d
       -0.057893462 0.07457176 0.059357848 0.053714566
0003d0 2e 27 b1 bd 6f 0f 90 3c 53 ea 57 bd e8 dd 5b bc
       -0.08650051 0.017585484 -0.052713703 -0.013419606
0003e0 53 d4 aa bc 82 12 6b 3d 8f 74 8e 3d 65 63 9f bd
       -0.020853197 0.057390697 0.069558255 -0.0778263
0003f0 1a 5e 28 3c 18 99 d3 bd 55 fc a9 bc 1e e7 b9 bd
       0.010276342 -0.10331935 -0.020750204 -0.09077285

enc_fc1.bias f4 [128]
000000 c5 f2 95 3a 53 06 24 3c 54 91 2e 3d 0a 28 ca bc
       0.0011440149 0.010011273 0.042619064 -0.024677295
000010 66 96 91 3c be 19 89 bc 9e a0 1e bc a2 5d 63 bc
       0.01777191 -0.016735908 -0.009681849 -0.013877304
000020 64 70 4e 3d b6 00 a7 3c f0 dd fd 3c b6 12 2d bd
       0.050400153 0.020386081 0.030989617 -0.042254172
000030 a2 80 6b bd 14 5c 6c bb 5d c3 2a bc 1c 3f 92 3c
       -0.05749572 -0.0036065625 -0.010422555 0.017852359
000040 88 cf fc 3c 4a e6 e0 bc 5a 01 37 3c 72 b5 1e bd
       0.030860677 -0.02745356 0.011169756 -0.03874726
000050 33 bd ff bc 50 b1 a3 3c dd 92 da bc 40 14 40 3c
       -0.031218147 0.01998201 -0.026681358 0.011723578
000060 a2 8c ed 3c 48 07 31 3d 9e 78 71 3c fb 2a 55 3c
       0.028997723 0.043219835 0.01473823 0.013010736
000070 f5 6e bf bc a8 af 46 bd 2b 31 06 bd 94 58 02 bd
       -0.023368338 -0.048507363 -0.032761734 -0.031822756
000080 a8 2b a7 3b 9e dc 4f 3c e2 c8 5d 3d 92 3a 6c 3b
       0.00510164 0.012686877 0.054146655 0.0036045653
000090 69 64 92 bc 37 c1 3b 3c 45 c0 6a 3d e6 09 8c 3c
       -0.017870145 0.01145964 0.05731227 0.017094564
0000a0 dd 07 ed bc 6f 81 5d 3c 0b 70 f7 bc 6b 2a c7 3c
       -0.028934414 0.013519629 -0.030204793 0.024312219
0000b0 9a 94 03 bd d8 82 40 bd 20 13 1a bc a9 4a 05 bc
       -0.03212414 -0.046999782 -0.009403974 -0.008135476
0000c0 72 a9 a0 bc 72 81 21 bd 7b 52 2d 3d 4c a5 09 3c
       -0.019612048 -0.03943009 0.042314988 0.008401226
0000d0 1d 00 25 bd ce 17 d0 bc 7e 3d c2 bc 83 c3 3a bc
       -0.04028331 -0.025401976 -0.023710962 -0.011399153
0000e0 48 d9 b3 3c 4f b1 17 bd c4 fe e5 bb bd b0 8c bc
       0.021954194 -0.03703433 -0.007018896 -0.01717412
0000f0 1c b7 30 bc f9 fb 99 bb 49 33 cc 3c 24 af 23 3c
       -0.010785844 -0.004699227 0.024926798 0.009990487
000100 a8 d3 6f 3c cc 20 c9 3c 17 a1 eb 3b 5a 72 f7 3c
       0.014637865 0.024551772 0.0071908343 0.030205894
000110 b8 b0 06 3d e0 95 5a bd c2 a0 03 bd b1 b9 9c 3c
       0.032883376 -0.05336559 -0.032135732 0.019131513
000120 06 05 4d 3d 70 ba ca ba fe 40 b2 3c cc 58 f1 3c
       0.05005362 -0.001546694 0.021759506 0.029461287
000130 1f fe 77 bc 4a 3b 47 bb a5 21 a3 bc 99 04 97 bb
       -0.015136271 -0.003040033 -0.019913504 -0.0046087024
000140 35 df 1f 3d 22 7a 57 3c 73 81 31 3d 68 55 18 3d
       0.039031226 0.013151677 0.043336343 0.037190825
000150 e6 1a 2b 3c ff 56 fc bb c4 c7 af 3c 21 ae 16 3d
       0.010443425 -0.0077008004 0.02145756 0.036787156
000160 5a 6d 7e 3a ff ad e5 bb 04 57 c2 3a 81 36 29 bd
       0.00097056257 -0.0070092673 0.0014826958 -0.041311745
000170 70 8b d3 bc 9d 7c 28 bd a9 0e 12 3d c7 71 29 3c
       -0.025823325 -0.041134465 0.035658512 0.010342068
000180 d6 4e 63 ba 2e 42 22 bd 1d 0f 47 3c c4 0c 10 3d
       -0.000867111 -0.039613895 0.012149599 0.035168424
000190 f4 2a 2d bd 37 0c 4a bc ef 8b 26 3d 7e 3f b5 3b
       -0.04227729 -0.012332014 0.040660795 0.0055312505
0001a0 2a 1a db 3c b6 20 2a 3d 11 0c 14 bd 0e 06 dd 3b
       0.026745874 0.0415351 -0.03614432 0.0067451065
0001b0 36 e4 1a 3b 7f 61 93 bc 88 75 20 3d cb 08 a3 bc
       0.002363456 -0.017990826 0.039174587 -0.019901654
0001c0 f0 d7 0c 3d a5 a1 29 3d 13 e0 f8 3c 68 52 26 3c
       0.03438562 0.041413922 0.030380284 0.010151483
0001d0 8c d5 0a bc 4a 65 13 bc b3 24 2f bc 11 4a 03 3c
       -0.008473765 -0.008996317 -0.010689902 0.008013264
0001e0 e8 79 71 bd 03 a8 21 bd 4f af 2d 3c 86 ec f6 3c
       -0.05895415 -0.03946687 0.010600879 0.03014208
0001f0 96 4f 56 bd 3d 94 0e bd 4a 47 d6 3c 64 95 36 3d
       -0.052321993 -0.03480934 0.02615704 0.044576064

dec_fc2.weight f4 [512, 128]
000000 dc bc 09 3d 48 1c 9d bb 89 f3 1a 3d 00 f7 9d bc
       0.033627376 -0.004794631 0.03782991 -0.019282818
000010 39 13 a0 3b f7 5c 8d 3c 87 9c aa 3a 3c 40 e8 ba
       0.004885104 0.017256243 0.001301662 -0.0017719339
000020 c7 5e ca 3b 5c 23 0a bc 3f 86 a1 bc 25 3d 8d bc
       0.006175849 -0.008431282 -0.019717334 -0.01724107
000030 e1 b4 56 3d 57 80 d7 3c 38 0f 08 bb cf c3 ae bc
       0.052418593 0.026306314 -0.0020761024 -0.021333603
000040 b7 da 13 bd c7 69 b2 bc 36 c1 cb 3c 09 88 21 3c
       -0.036097255 -0.021778954 0.024872404 0.009859093
000050 68 1f 1a 3d 80 a9 bb 3c 35 10 82 3c 75 64 6e 3c
       0.037627608 0.022907972 0.015876869 0.014550318
000060 52 61 81 3c 87 4c b8 bc 9c 2d de bc 98 48 a8 bc
       0.015793476 -0.022497429 -0.027121358 -0.020542428
000070 27 c5 34 bc d3 18 05 bd 70 4b c6 bc 15 92 df 3b
       -0.011033333 -0.032494377 -0.024205893 0.0068228343
000080 53 26 7f 3d a4 5e 15 bc 21 d0 ef 3b d2 4d 82 3c
       0.06229241 -0.009116802 0.007318512 0.015906248
000090 14 8e a2 3c 07 39 39 3b a9 62 89 bb 03 48 54 38
       0.019843139 0.002826275 -0.0041926694 5.0611805e-05
0000a0 2f 8e 6e 3b 19 f8 a6 bc 97 7d a2 3b 19 26 0f bc
       0.0036400666 -0.020381974 0.004958819 -0.0087371105
0000b0 61 f6 86 3c da 94 0f bc a1 39 91 3d d0 65 77 bd
       0.016474904 -0.008763516 0.0709107 -0.06039983
0000c0 2e d2 49 bb fc da d8 3c c3 37 0d 3d f5 8d 2e bd
       -0.0030795443 0.026471607 0.034477007 -0.04261585
0000d0 54 7d 26 bc 04 21 e6 bc fc 11 0b 3d ca 25 c9 bc
       -0.0101617165 -0.028091915 0.033952698 -0.024554152
0000e0 27 d9 b4 bc 78 8b ec ba fb b1 54 3c 66 2e d8 3c
       -0.022076203 -0.0018046936 0.012981887 0.026389312
0000f0 a8 28 eb 3c 3e 03 00 3c 83 f9 31 3d 54 a2 68 bb
       0.02870591 0.007813273 0.043450844 -0.0035497146
000100 dc 00 68 3d 35 ff 50 3b 9b 86 26 3c 0a 11 5c 3d
       0.056641445 0.0031890396 0.010163928 0.053727187
000110 e5 68 8b 3c 00 13 10 bd 42 80 bc 39 4d 12 12 3c
       0.017017791 -0.03517437 0.00035953714 0.008915496
000120 b7 ee 05 bd df f3 ad bc 09 af 8d bc da c5 1c bd
       -0.03269836 -0.02123445 -0.017295377 -0.038274623
000130 37 04 8c 3c e0 05 40 3c 2d 12 73 bc bf fe 6d 3b
       0.017091854 0.011720151 -0.014835876 0.003631517
000140 30 47 44 bd 1a b3 7b bd 93 42 25 3d d9 dc 4a 3d
       -0.047919452 -0.0614501 0.040346693 0.049527023
000150 e3 09 1b 3c 36 e3 94 3a 76 c1 f1 bc ee 25 e7 3c
       0.009462806 0.0011359218 -0.029511195 0.028216328
000160 1b 37 28 3c 3c 91 b0 bc a2 ad 1e 3c f5 d4 71 3c
       0.010267044 -0.021553628 0.009684952 0.014760246
000170 bb 09 15 bc 4a 16 07 bd f8 56 06 3d 1e 38 cf 3b
       -0.009096558 -0.03298024 0.032797784 0.0063238284
000180 9f 0f 8e bc a5 1e 68 bd 32 95 3f bd a0 96 fd bc
       -0.017341433 -0.05666985 -0.046773143 -0.030955613
000190 9d 5f bb 3b 13 09 68 bc 11 d7 a4 3c 6d 9d 97 bc
       0.005718185 -0.01416232 0.020122083 -0.018507684
0001a0 7e 7b 64 bd 35 9d 3f bd 16 1e 58 3b 7f 82 14 3c
       -0.055781834 -0.046780784 0.0032976917 0.009064316
0001b0 59 f7 b2 3c c8 91 90 bc fd 67 0a bd 1c 94 96 3d
       0.02184646 -0.017647639 -0.033790577 0.07352468
0001c0 9f 9f bb 3c db ae 6d 3d 8e 0e 97 bb 15 a5 41 bd
       0.022903262 0.058028083 -0.0046098894 -0.047276575
0001d0 a3 7e cb 3b 76 b1 bf bc 87 95 28 3a 08 ad 34 3c
       0.0062101646 -0.02340005 0.0006430973 0.011027582
0001e0 87 15 3c bc 2e 7c 71 bd 9a 28 c2 3c af 81 53 bc
       -0.011479742 -0.058956318 0.023701001 -0.012909337
0001f0 07 40 3f bb 14 23 81 3c f8 e2 0b 3d 1b 39 dd bc
       -0.002918245 0.015763797 0.034152 -0.02700477
000200 92 2d 23 3c e1 89 5d 3c 3a 79 10 3b 8a 6b 3f bb
       0.009959595 0.013521642 0.0022044913 -0.0029208385
000210 ea 44 50 bb 84 26 c6 bc 45 40 a7 b8 f0 d4 55 3c
       -0.0031779357 -0.024188288 -7.975152e-05 0.013051257
000220 89 97 e3 3b 1f 56 0b bd 72 8e 14 3d 9f 65 10 3d
       0.0069455546 -0.03401768 0.03626866 0.035253163
000230 1f 4a 0c 3c d0 32 be bb a8 82 59 3d 87 5b 62 3c
       0.008562594 -0.005804397 0.05310312 0.013815767
000240 58 a6 51 3c ad a8 5c bc 58 61 01 3d c4 4c 74 bb
       0.012796007 -0.01346795 0.031586975 -0.0037277201
000250 93 d3 c9 3c 34 f3 03 3c c7 43 43 3c 21 4a 36 ba
       0.02463702 0.00805359 0.011918015 -0.0006953795
000260 8a 7f 43 3c aa cd b6 3b 5c 41 3f 3a 5c db 4e 3c
       0.011932263 0.0055787163 0.0007295811 0.012625542
000270 10 79 4e bc 4b c3 cf bc bc b3 05 bb ca ff 67 3c
       -0.012602106 -0.025361678 -0.002040132 0.014160106
000280 c7 cb 17 bd 09 e6 ad 3c 5b 54 b6 3c 05 cb 86 3c
       -0.03705957 0.021227853 0.02225702 0.01645423
000290 4c 5e ab 3b 58 2e 25 bc 65 1a a7 bb 6e e7 d4 bc
       0.005229747 -0.01008185 -0.005099582 -0.02598926
0002a0 54 d2 3b 3d 26 43 52 3c 22 39 27 bd 83 9f 9f bb
       0.04585488 0.012833392 -0.04082597 -0.00487131
0002b0 22 e3 f7 bc 75 6e bb bc 5f a8 84 3b 31 64 06 3c
       -0.030259673 -0.022879818 0.0040483917 0.008202598
0002c0 ec 9d 04 3c c2 73 9b ba 6b 3f 3f ba 15 e3 a2 bb
       0.008094292 -0.001186006 -0.0007295522 -0.004970918
0002d0 8f c3 b8 ba 1d 8e bf 3c 39 80 1d bc a9 15 2c bb
       -0.0014096367 0.023383195 -0.00961309 -0.0026258028
0002e0 c4 9a c6 3b 3f 11 15 bd 82 4b cf 3b 9b 4b b3 3c
       0.00606093 -0.0363934 0.00632614 0.021886637
0002f0 e3 32 0a bd 9c 7b 9a 3c fe dd c8 39 6d 51 44 3c
       -0.033739936 0.01885777 0.0003831237 0.011982304
000300 a0 d2 eb 3a 60 5d 30 3c ee 10 36 bc 93 ec 23 3d
       0.0017991848 0.01076445 -0.011112435 0.040020537
000310 2d 63 03 bd cb e6 30 3c 9e 3a 06 bc b7 c5 6e bc
       -0.032077003 0.010797213 -0.008192686 -0.014573506
000320 d5 f8 f5 3a 5d 7c 24 3d 55 7e 47 3c 64 0a 1a 3c
       0.0018766174 0.040157665 0.012176116 0.009401891
000330 94 f2 b4 3c 84 e0 88 3c 03 21 67 3b a2 b9 f1 3b
       0.022088327 0.01670862 0.003526748 0.0073768655
000340 33 70 88 3c 4e 26 31 ba 15 d2 33 bc 97 94 3e ba
       0.016655063 -0.0006757722 -0.01097538 -0.00072700664
000350 e7 e1 ac bc db 6c ab bc 7b 59 d9 3b fc bc ce 3b
       -0.021103812 -0.02092593 0.0066329814 0.00630915
000360 f2 e6 fc bc a3 65 6b bc e3 01 10 bb 57 d0 0e bc
       -0.030871842 -0.014367494 -0.002197378 -0.008716664
000370 d3 fe 09 bd af 06 9f bb 74 e1 b4 3c 60 4e 8d 3b
       -0.033690285 -0.0048530917 0.02208016 0.0043123215
000380 aa 96 84 3c e8 89 57 3b cc 23 45 bd 9e 33 ab bc
       0.016185123 0.0032888595 -0.04812984 -0.020898636
000390 85 a2 5f 3c 5e 01 d8 bc a8 8e 6f 3a 10 4d b2 bc
       0.0136495875 -0.02636784 0.0009138384 -0.021765262
0003a0 69 0a f1 3c b2 60 ee 3b 1d 68 2c ba dd 47 2f bd
       0.02942391 0.0072747106 -0.00065767934 -0.042793144
0003b0 36 1f b9 3b 8b c3 4b bd f2 ec bd bc 85 be 7b 3c
       0.0056494726 -0.04974703 -0.023184273 0.015365248
0003c0 d6 ed b6 bc 23 da d4 bc 84 38 2f bd c0 2c 92 bc
       -0.022330206 -0.025982922 -0.042778507 -0.017843604
0003d0 4e f1 48 bb 13 ed df ba 1c 7a 1f 3c 8f ad 93 bc
       -0.0030661407 -0.0017084203 0.009733703 -0.018027095
0003e0 f0 e4 99 bb f0 e1 3b bd 29 0e 17 bd c3 61 0a 3d
       -0.004696481 -0.045869768 -0.03687874 0.03378464
0003f0 7a d0 d6 39 d9 08 06 3c 23 7a 96 3b 96 5c 68 3c
       0.00040972588 0.00818082 0.0045921966 0.01418223

dec_fc2.bias f4 [512]
000000 d3 e8 bc 3c 5d c2 1e 3d 6c 3b 25 3d 88 2b ec bc
       0.023060238 0.038759578 0.040339872 -0.028829351
000010 b5 8b ac bb bd 6b 11 ba 53 cb d8 3c f4 92 aa bd
       -0.005265678 -0.0005547365 0.02646414 -0.0832881
000020 7e 19 00 3d eb 19 84 bd 2a a4 33 3c 8d ab a7 3c
       0.03127431 -0.06450256 0.010964433 0.020467544
000030 b7 b5 06 bd 30 c6 a7 bd cb c4 4a bd 9d 1b 13 3d
       -0.03288814 -0.08192098 -0.049504083 0.035915006
000040 ef 68 9f 3d ca 7b f0 3c 6e 3c dc 3c 49 e0 08 3d
       0.07783686 0.029355902 0.026884284 0.03341702
000050 4b b3 be bd 24 f9 0e 3d 35 ce 9d bd 40 c0 04 bc
       -0.09311541 0.034905568 -0.077053465 -0.008102477
000060 5c e1 bc bd ad 41 52 3d 69 85 97 bc 0b de 85 bd
       -0.092226714 0.051332165 -0.018496232 -0.06536492
000070 47 87 76 bd 2e 9b ee bc 74 53 ea bc 91 79 5d 3d
       -0.060187604 -0.02912673 -0.028604247 0.054071013
000080 97 27 d6 bb 6b b9 6b 3d 3a f8 50 bd 08 dc 31 3c
       -0.006535481 0.057549875 -0.051017977 0.010855682
000090 9e b3 23 bd 34 d8 62 3d 44 e9 d0 bc a7 18 b4 bc
       -0.03996622 0.05538197 -0.025501855 -0.021984411
0000a0 73 10 3c 3b 45 16 78 bd ba b2 be bd 84 9a 05 bd
       0.0028696328 -0.060568113 -0.09311433 -0.03261806
0000b0 bd 43 08 3d 9a fc 33 3d 12 1e 97 bd cf 52 55 3d
       0.033267725 0.04394207 -0.07378782 0.052080926
0000c0 d3 9e b7 b9 24 75 53 3b db bd b4 bc d0 fe 6d 3c
       -0.00035022813 0.0032265866 -0.022063186 0.014526084
0000d0 c3 4c 20 3d 75 46 d0 bc 31 6e 4f bd 2e 23 20 3b
       0.039135706 -0.025424222 -0.050642196 0.0024435031
0000e0 74 88 4a 3c eb 75 2c 3d 14 18 ec bb 3e c6 c0 bd
       0.0123616345 0.042104643 -0.007205019 -0.09412812
0000f0 16 28 ef 3b 12 91 18 bb c2 39 4e 3d 7b 07 53 3d
       0.00729848 -0.0023279828 0.05034805 0.051520806
000100 b0 15 dd 3c 69 85 2d 3b fc be 4b bc c6 09 bc bd
       0.02698788 0.0026477224 -0.012435671 -0.09181552
000110 a9 53 70 bd ad 3d e4 bc 48 58 00 bc 5d 71 90 3d
       -0.058673535 -0.02786144 -0.007833548 0.07052872
000120 f5 d0 a0 ba 57 37 a4 bc f5 d8 ae bc 96 b7 9b bc
       -0.0012269305 -0.02004592 -0.021343688 -0.019008439
000130 70 13 c6 bd 4f 77 42 3c a3 22 9c bb 32 d0 61 3d
       -0.09671676 0.011869266 -0.004764871 0.05513019
000140 e1 03 55 3d ea 55 c9 3c 94 5e f3 3b c7 01 3f 3d
       0.052005652 0.0245771 0.007427046 0.046632554
000150 84 bc f2 bc 43 6f 27 3c cc 03 37 3d 89 b0 7a bc
       -0.029630907 0.010219398 0.044681355 -0.015300878
000160 33 9d b9 bc 87 2b c7 bc de ab af ba cd a2 70 3d
       -0.022657966 -0.024312748 -0.0013402661 0.05874901
000170 01 82 cf bc 0e 13 59 bd 33 f0 1b bd fa 98 28 3d
       -0.025330545 -0.052996688 -0.03807087 0.041161515
000180 c8 08 bd bd 73 91 c5 3b 37 54 b1 3d 5a b2 34 bb
       -0.092301905 0.006029302 0.08658641 -0.0027572126
000190 c2 e9 97 3d d6 ee 59 bc fd 1a 10 bd 4c 67 aa 3c
       0.07417633 -0.013301572 -0.035181988 0.020801209
0001a0 27 41 49 bc 73 7a 88 3c e3 ae 8f 3d b2 f6 b3 3d
       -0.0122836 0.01665995 0.07015779 0.08787288
0001b0 ee ca 3e bd 81 8e 07 3d f3 93 cd bd cc 90 93 3c
       -0.046580248 0.033094887 -0.10037985 0.01801338
0001c0 df 7d 6a 3b 44 60 57 bb db cb ae 3d 12 9e 6f 3c
       0.0035780591 -0.0032863775 0.08534976 0.014625089
0001d0 ec 75 36 3d 9c 34 91 bd 6a 56 a3 bd da 59 2c bd
       0.044546053 -0.070901126 -0.079754665 -0.042077877
0001e0 8f cb 09 bd cf cf ba bd 43 6f 1b bd 64 a9 2d bd
       -0.033641394 -0.091216676 -0.037947904 -0.04239787
0001f0 97 c8 80 bd 74 b3 7b 3b f7 65 56 3d 24 9b 2d bd
       -0.062882595 0.0038406523 0.052343335 -0.04238428
000200 99 2e 87 3d 93 32 d8 3b d2 2a 1d 3d c3 9d 88 3d
       0.06600685 0.006597826 0.038370915 0.06670716
000210 2d 8b 52 3d aa 6a 23 3d 6c 6b ec bc eb 3d 27 bd
       0.05140226 0.039896645 -0.028859816 -0.040830534
000220 92 45 2e 3c 01 aa 72 3b 57 f1 a2 bc dc 7b a4 bd
       0.010636704 0.00370276 -0.01989047 -0.08031437
000230 f2 8a 35 bd af af 62 3d 7b fa 18 3c db 95 fc 3c
       -0.04432196 0.055343326 0.009337063 0.030833175
000240 cd 91 bd bc 9f b9 92 bd fc 09 cc 3d c6 73 26 3c
       -0.023140812 -0.07164311 0.09962842 0.0101594385
000250 cd 63 f0 bc d8 41 98 bd da c6 9f 3c 02 19 da bc
       -0.029344464 -0.07434434 0.019504 -0.026623253
000260 22 9d 80 bd a0 4c 8b bd a0 ca 8d 3d f7 97 07 3d
       -0.06279971 -0.068017244 0.06923413 0.03310391
000270 46 f2 e1 3c bf c8 f0 3c 54 57 06 bd 14 12 11 3d
       0.027581345 0.029392598 -0.032798126 0.03541763
000280 02 0d 57 3d 8a f7 c2 3c 06 78 7c bd 27 ee f5 bc
       0.05250264 0.023799676 -0.0616379 -0.030020786
000290 3b cf 7c 3c 1f c8 4d bd b4 aa 28 3d 92 15 28 3b
       0.015430267 -0.05023968 0.04117842 0.0025647623
0002a0 17 61 6e bd 3e 4a 5f 3c 99 3c 9c 3c 8f cd 49 3d
       -0.05819806 0.013628541 0.019071864 0.0492683
0002b0 b1 ce dc 3d 51 b9 80 3c a4 50 bd 3d 98 1c 5e 3d
       0.10781611 0.015713366 0.092438966 0.054226488
0002c0 77 7e 7f 3c 3c 3c 78 bd 75 7d b2 bc cf 3a 51 bd
       0.015594116 -0.06060432 -0.021788338 -0.051081475
0002d0 5d 36 0c 3c fe dc bc 3c 34 77 9f bd c6 69 33 bd
       0.008557883 0.023054596 -0.07786408 -0.043802045
0002e0 cd 51 61 3d 65 cf a0 bb c1 67 b4 3c d1 76 c5 3c
       0.055009652 -0.004907536 0.02202213 0.024104508
0002f0 10 0e f1 bb b6 d9 1a 3d 05 8d 9c 3d 36 e6 65 3d
       -0.0073564127 0.03780528 0.07644085 0.05612775
000300 a5 3e a7 bc 32 12 19 bd 53 67 41 3d 3c b8 72 bd
       -0.020415613 -0.037370868 0.04721768 -0.05925773
000310 ab e5 4c 3c b6 a7 32 3d e9 aa 8e bd 48 cf 98 3c
       0.012505929 0.043616973 -0.06966192 0.018653527
000320 38 78 cb bd c4 b5 94 bd d5 37 2a 3d 27 bb 8d 3d
       -0.09935039 -0.072612315 0.04155715 0.06920462
000330 d1 ce 9b bb 86 2c 3b bd 62 21 9f 3d 28 b0 0c bd
       -0.004754879 -0.045696758 0.07770039 -0.034347683
000340 f6 55 11 3d 95 02 b6 3b a6 af 04 3c 4d e2 1b bd
       0.03548237 0.005554507 0.0080985185 -0.038057614
000350 cc 6d 73 3c 2c 5d 11 3d 4c ce 90 bd e8 dd 9d bc
       0.014857721 0.035489246 -0.07070598 -0.019270852
000360 35 c9 00 bd 4b e2 1d bd 3f 28 7c 3d d8 68 0b bc
       -0.031441886 -0.038545888 0.06156182 -0.008508883
000370 fc 30 bf 3c fc d5 8e bd 42 2e 1c 3a 11 ae 5c 3d
       0.023338787 -0.06974408 0.00059578207 0.05387694
000380 0c b5 80 3d ed 84 23 3c 41 b2 2c bd dc 6d f7 3c
       0.06284532 0.009980422 -0.042162184 0.030203752
000390 60 98 6c 3c d8 1b 66 bd 17 eb 4c 3c 11 3b d0 bd
       0.014440626 -0.056178898 0.012507222 -0.10167516
0003a0 3c 96 bb bc c7 56 81 3d 9f 6e 80 3d bd 5d 5c 3d
       -0.022898786 0.063153796 0.06271099 0.053800333
0003b0 44 53 80 bd 21 e3 73 3d 09 9a e7 3c 0f 19 40 bc
       -0.06265882 0.05954278 0.028271692 -0.011724724
0003c0 cf 94 77 bc 76 f9 b3 bc 85 a3 84 bc 88 0b 3c bd
       -0.015111162 -0.021969538 -0.016191253 -0.045909435
0003d0 2c 09 a6 bd 72 3c 0e bd 59 52 2c 3d 21 2c 57 3c
       -0.08107218 -0.034725614 0.04207072 0.01313308
0003e0 a0 08 b7 bc 7e a2 47 3d d9 de ce bc a8 6d c9 bc
       -0.02234298 0.04873895 -0.025252746 -0.024588421
0003f0 3e b3 2c 3d b9 3e c4 bc 8f e6 c0 3a 96 a4 96 3c
       0.042163126 -0.02395569 0.0014717149 0.018389028
