MUSC/checkpoints/t2t_ch_snr0.pth (torch, 528415 bytes, 4 tensors)

enc_fc1.weight f4 [128, 512]
00000000: 328f 42bb 4b06 7e3d bbf1 e23c 63c3 a43c
00000010: 4003 d3bc e818 123e ee92 503d ca8c aa3d
00000020: a0cc 9e3d 1bd4 cebc ba7e c23c 5807 97bc
00000030: dfbf 6abc 9562 0a3e 917e d8bd bc68 19be
00000040: f231 95bc 3263 053d 9fe4 353d 7b97 cebd
00000050: 16fa 3bbd cd7c de3c c0af 5bbc ced5 543d
00000060: 68c7 83bd 44ff fa3c 2b2e 97bd 8b7f 9cbc
00000070: 5077 a53c faf8 283c 5c60 80bd acce 00bd
00000080: c85f 0f3e 5b11 ed3b dff8 d43d 9564 81bc
00000090: 6318 1bbd 5389 0dbd e31c 90bd 490c c1bc
000000a0: 8d88 1dbd 2c2e 77bd 2f40 5dbd a0b9 0e3d
000000b0: 24e5 89bd f4c7 c1bc 4277 923b f520 d7bc
000000c0: 9180 0ebd cfe1 86bd 4fd9 3c3d 486a ba3b
000000d0: 4256 60be ab17 97bd b859 b2bb 4728 133e
000000e0: 80d3 5b3d faf5 c33c c359 82bd 3de3 983d
000000f0: 9190 b83d 2d6b 9f3b c1d8 07be 992d e4bd
00000100: 2acd f83d df16 25bd 0764 7dbc e2a5 6ebd
00000110: 517c 94bb 3849 113d 4950 2fbc 4a52 2ebe
00000120: 9678 ac3a 21b8 473d c46a 3bbd 07d6 3fba
00000130: 0daa 803d ba27 9c3d 8c13 4abd a8ed 0ebd
00000140: 3e18 02be 7dab d63c 7d88 163c 6b08 d93b
00000150: f383 7bbd 5cb8 133d 2a42 2d3c 54f0 0b3d
00000160: 4081 69bd dd9f 953c 61e3 6e3d d22b 583d
00000170: 7b02 54bd ee3f 953d 2cf0 c2bc 4aa4 103d
00000180: 1502 8bbc 2f2b 8e3d 161b 5d3d 7926 b0bc
00000190: 3ec0 ecbd 8632 a1ba 585d d4bc 0855 cebc
000001a0: 6eb9 693d 2379 003c 9c81 123c b2ca b73c
000001b0: 8626 8d3d 93ef 3bbc 8871 413c b628 cdbd
000001c0: 4201 833c 7acf d93c f9ee 2a3b 2f33 93bc
000001d0: eb92 a4bc 3321 1c3c ea47 81ba 7101 c63c
000001e0: cef4 aa3c b9e6 acbd 9fc9 10bb b6bb 8d3d
000001f0: 2d4c 5dbd 6d45 083c 8918 b93d e6a5 b6bb
00000200: 9517 9d3d d24c 033d fca9 603d 8beb c33c
00000210: 09a0 2ebd 57df 4c3c a166 83bd 2577 aabc
00000220: b463 d93d 4077 ec3d ed5f 1c3e b0c7 32bd
00000230: 81ad debd fdf9 77bd 3997 62bb 5b9a 303d
00000240: c764 e23a dac9 523c 0ac5 0dbd 4871 793d
00000250: 3ffe 863d 1437 073e dca0 f63c 4c60 d9bb
00000260: dca5 013c 07e9 afbd b80f d3bc 2b46 033d
00000270: e6d4 6c3d d6cd 1e3d 34ff e33d 3a77 af3d
00000280: f4de 023d cf5a 2b3e 027c a7bc ba53 00bd
00000290: 1fa4 033d ee11 babd 9e11 ed3d 35a9 403c
000002a0: 6d61 6abd dd80 dcbc 67e8 ebbc f92e 713c
000002b0: 187a b23a 4175 aabd 5c32 6bbd df00 a23d
000002c0: 8b10 363b a466 073d b956 b73d d858 a13c
000002d0: 64b5 a3bc 89d7 5d3d 2e35 763a d73d 87bd
000002e0: f563 4dbd b81e f33c b985 84bb b9ee 21be
000002f0: 15ae 5e3d a9de 59bc 4525 53bd 5b8f 5f3d
00000300: d8f2 9bbc 3377 79bc 6c3d f23d 1c01 5f3d
00000310: 64a4 e53d d20c 96bc 10d3 17bd 5ef0 8fbd
00000320: e831 2d3d 0cd0 60bc 97aa 01bd de26 bbbc
00000330: 1b9d 39bd d880 31bd 721d 5e3d ddd1 b73d
00000340: 701d 0cbc 2846 f3bd 2b8c 0f3d 8cc3 2d3d
00000350: fcbe 9ebc 0135 babd e2b7 d83d a3b4 8fbd
00000360: a28f 243d 5be5 45bd ddbc 62bb fffd 8a3d
00000370: cb97 213d 909f 98bc a369 46bd 7fd0 d3bc
00000380: 2d23 88bd 81d7 e9bd e37a 07bd d0ac ab3c
00000390: 4633 5dbc a6ed 22bd 93d7 0cbd 1c05 50bd
000003a0: 710d 9d3d 92f4 85bb 9150 b23b 67be d3bc
000003b0: cab2 0aba 1e86 0cbe 244a db3d a985 ad3d
000003c0: e05a 393e 5409 4f3c 17f7 593c 2df1 c43b
000003d0: 2341 10bd 4619 c2bc 7eba cebc 150c 7fbc
000003e0: 1881 8bbd bf2c 7e3d e936 6c3c 9ec4 333c
000003f0: e2d5 d43c bd40 dcbb cc12 98bd c131 533d
-0.0029687402 0.06201772 0.027703157 0.020112699 -0.025758386 0.14267313 0.050921373 0.08327635
0.07753873 -0.025247624 0.023742069 -0.018436119 -0.014327972 0.13514169 -0.105710156 -0.14981359
-0.018212292 0.032565303 0.044407483 -0.10087486 -0.045892797 0.027159119 -0.013408601 0.051961713
-0.06434518 0.030639298 -0.07381853 -0.019103786 0.020198494 0.010313267 -0.06268379 -0.031447098
0.14001381 0.007234735 0.10399031 -0.015795032 -0.037865054 -0.03455479 -0.0703676 -0.023565428
-0.038460303 -0.060346767 -0.05401629 0.034844995 -0.06733158 -0.023654915 0.004469783 -0.026260832
-0.03479058 -0.06586038 0.04610568 0.0056889392 -0.21907905 -0.07377561 -0.005442824 0.14370833
0.0536685 0.023921002 -0.06364777 0.07465217 0.09011949 0.0048650713 -0.13266279 -0.111415096
0.12148507 -0.040305015 -0.015465743 -0.058263667 -0.0045314212 0.035470217 -0.010700294 -0.17023578
0.0013158496 0.048759583 -0.045756117 -0.00073179643 0.062824346 0.07624765 -0.049335048 -0.034894615
-0.1270456 0.026204819 0.009187815 0.006623318 -0.061405133 0.03606449 0.010574857 0.03416474
-0.057008028 0.018264705 0.058322314 0.052776165 -0.051760178 0.07287584 -0.023796163 0.03531293
-0.016968766 0.0694183 0.05398091 -0.02150272 -0.11560105 -0.0012298382 -0.025923416 -0.02518703
0.057061605 0.007841381 0.008942034 0.02243552 0.068921134 -0.011470693 0.011806853 -0.100175306
0.01599181 0.02658819 0.002608238 -0.017968742 -0.020089587 0.0095294 -0.0009863351 0.02417061
0.020868685 -0.08442444 -0.0022092832 0.06920569 -0.054027725 0.008317334 0.09037883 -0.005573976
0.076705135 0.032055683 0.05484961 0.023916027 -0.04263309 0.01250442 -0.06416059 -0.020808766
0.1061472 0.11546183 0.15270968 -0.043647468 -0.10872937 -0.06054114 -0.0034575 0.043115955
0.0017272466 0.012865508 -0.03461174 0.06089905 0.06591462 0.13204604 0.030106 -0.006633794
0.007913079 -0.08589368 -0.025764331 0.03204934 0.057820223 0.03877052 0.111326605 0.085676625
0.031950906 0.1673386 -0.020444874 -0.031329848 0.03213894 -0.09085451 0.11575626 0.011759092
-0.05722182 -0.026916916 -0.028797342 0.014720672 0.0013616709 -0.08323146 -0.057421073 0.079103224
0.0027780856 0.03305687 0.08952088 0.019695684 -0.019983955 0.05416063 0.00093920797 -0.06603592
-0.050144155 0.029677734 -0.0040442613 -0.15813722 0.054365236 -0.013297715 -0.051549215 0.054580074
-0.019036695 -0.015226173 0.118281215 0.054444417 0.11212996 -0.01831666 -0.03706652 -0.07028268
0.042283922 -0.013721477 -0.031656828 -0.022845682 -0.045315843 -0.043335766 0.0542273 0.08975575
-0.00855194 -0.118786156 0.035045784 0.042422816 -0.019378178 -0.09092141 0.10581948 -0.070168756
0.04017604 -0.048314434 -0.0034597435 0.06786727 0.0394514 -0.018630773 -0.048440587 -0.025856255
-0.06647334 -0.11418057 -0.03307618 0.020956427 -0.013500994 -0.03977742 -0.034385275 -0.050786123
0.07668579 -0.004087993 0.005441733 -0.025847627 -0.0005290924 -0.13723037 0.107075006 0.08472759
0.18101072 0.012636501 0.01330354 0.0060101957 -0.03521837 -0.023693692 -0.02523541 -0.015566845
-0.06811732 0.062054392 0.0144173885 0.01097217 0.025980894 -0.0067215846 -0.0742546 0.05156112

enc_fc1.bias f4 [128]
00000000: 5e33 1fbc f7f4 e03c eded e93c 60aa 35bd
00000010: f05c 30bc 366f e63c 9cf9 d83c a1ec 1c3d
00000020: e58b 0c3d 8851 1d3d 71bc 9b3c 4b7d 7abd
00000030: f2a8 75bd 7b6b d53c 04eb 4b3c 550f bf3c
00000040: 1265 583c 9e48 cebd b500 8d3d 4d0b 44bd
00000050: 0d05 83bc 9940 3e3c c2db 3b3c 2322 30bc
00000060: 4ff5 573c 438d 2b3d a3c1 333d acbe 303d
00000070: 83dc ffbc 7fbc 6e3d 7fa6 c0bc 3361 b4bb
00000080: 1fe2 023c e907 893d 419b 443d 81fb e0bc
00000090: 104a 4d3c 34a7 ce3c 8c5b ee3c 143f 4ebc
000000a0: 98f1 9fbb f87f 183d 923a 8e3c e1e3 213d
000000b0: 62a4 09bd b72a 86bc 5a12 dabd 4103 263c
000000c0: 933d c4bd 9a00 9d3c 2330 963b 686a a0bc
000000d0: 263d 20bd 57ba 213c 970b 2cbd 6014 273d
000000e0: 88b1 203d 7fc7 6ebd 16aa b5bc e79e a03b
000000f0: 9b56 893c f8c8 19bc 0392 60bc 64d0 7439
00000100: 2cc4 f63c 30a9 3cbc d11b 2ebd 7cfd 4bbd
00000110: 8dab 35bd 8c19 05bd ef1f c23b 7375 19bc
00000120: c86d 1bbc a198 8cbd fc61 073c 24bb 24bc
00000130: 5f26 9dbc 3090 113c a44e 103c 4cad ae3c
00000140: 52dc f63c 960b 013d dd22 a83d adb2 cfbc
00000150: 7716 2bbd 7141 70bd f9f7 393c 7fe0 423d
00000160: 2aba f73b 78da 5fbd c00e 3cbc 3666 6d3d
00000170: 937e 8fbd ddc6 b5bc 1ab9 80bd fbdc 11bc
00000180: 20da 45bd 99c2 4d3d 3310 41bc aa61 bdbb
00000190: 23db 1fbd a73b 51bd 33a1 bbba fb49 113d
000001a0: c7c6 033c 2140 4ebd 45e0 013d bca9 1dbd
000001b0: 977c 823c cb87 46bd 8671 923c c4c0 6abd
000001c0: 9262 863d ae93 453d a2b5 93bc 288c 583b
000001d0: 221b d2bc 63d0 053d 5fb7 eebc 6a19 dabc
000001e0: 1c1f 6dbc 0ee7 633b fc64 0f3d b415 38bd
000001f0: 3686 593d 81db 783c 9954 8d3c e292 ad3d
-0.009716837 0.027460558 0.028555835 -0.044351935 -0.0107643455 0.028129201 0.02648621 0.038311604
0.0343131 0.038407832 0.019010754 -0.061154645 -0.059975572 0.026052227 0.012446169 0.02332274
0.013207691 -0.100724444 0.068849005 -0.04786234 -0.01599362 0.011612081 0.011465969 -0.010750326
0.013181045 0.041882765 0.04388584 0.04315059 -0.031233078 0.058285233 -0.023516892 -0.005504751
0.007988482 0.06690962 0.047999624 -0.027463676 0.012529865 0.025226213 0.029096387 -0.012588281
-0.004881095 0.037231416 0.017361913 0.039523963 -0.033604033 -0.01637779 -0.106480315 0.010132612
-0.09582057 0.019165326 0.004583375 -0.019581988 -0.039120816 0.009871087 -0.04200324 0.040790915
0.039231807 -0.058295723 -0.02217583 0.004901755 0.01676493 -0.009386294 -0.013706687 0.00023347285
0.030122839 -0.011514947 -0.042506997 -0.04980229 -0.044353057 -0.032495067 0.005924217 -0.009366381
-0.009486623 -0.06865049 0.008263107 -0.010054383 -0.019183336 0.008884475 0.008807812 0.021322869
0.030134354 0.03150519 0.08209775 -0.025353754 -0.04176947 -0.05865616 0.011350625 0.047577377
0.0075600343 -0.054651707 -0.011478126 0.057958804 -0.07006564 -0.022189552 -0.06285305 -0.0089027835
-0.048303723 0.05023441 -0.011783647 -0.0057794647 -0.039027344 -0.05108228 -0.0014315009 0.035470944
0.008042998 -0.050354127 0.03170802 -0.03849195 0.01592855 -0.048469346 0.017876398 -0.057312742
0.065617695 0.04823654 -0.018030945 0.0033042524 -0.025647704 0.032669436 -0.029140173 -0.026623446
-0.014472749 0.003477517 0.035008416 -0.044942573 0.05310651 0.015189053 0.017252253 0.08475281

dec_fc2.weight f4 [512, 128]
00000000: dc5b ff3b 1af4 323c 278d 65bc b97c 75bc
00000010: 8879 773c 4f0b f73b 2352 36bb 8912 06bc
00000020: 0549 a83b 44f4 16bc 5bba 84bc ed6f 453c
00000030: e774 91bb ee5c 1d3b ca63 e4ba f0f5 55bc
00000040: 15b6 1f3c 6dd0 003c ef3b 793a 0f7e 6cba
00000050: 79d4 123c 5ba8 f1bb 1838 d3bb 7ad7 6c3c
00000060: 69bc 473c 6b7b 7abc d3e1 373a c762 49bb
00000070: 579a ebbb 025d 663c 6764 f3bb 271c 443a
00000080: 7796 26bc 20e0 843b 86bf 0b3c 792a 6c3c
00000090: b756 a33a 2d33 563b e621 e739 59eb b93c
000000a0: d6a1 2b3c c72d ccbb 986e 6abb 02bc 693c
000000b0: 4224 25bc 162c 063c 9c72 793c d221 1abc
000000c0: d58e adbc e391 08ba 693d cc3a 58f3 c33b
000000d0: 15a5 2fbb 229f 9439 e2be 163c 6c2d bebc
000000e0: 11dc d4bb 4068 64ba dd47 823b 46c8 93bb
000000f0: 41e9 413b ab31 aabb 41b0 2cbc ec73 a53b
00000100: 83dc 233c 84d7 e33a 36e0 4b3c 8212 45bc
00000110: 4f53 813c 4d7d d43b abb9 4d3c 28d9 313b
00000120: 66d8 ad3b 116a 5bbc 3ed2 383b 23f6 a93b
00000130: c640 103c 3110 613c c309 273c 6d86 34bc
00000140: c54a 00bc 70d7 82bc f678 aebb e40a c7b9
00000150: 6c18 cc3b 1dd1 cc3b e36d 29bc e1f2 84bc
00000160: 4b7f 983c 0f85 7abb 1f20 adbb c81c 3a3c
00000170: 8f89 733c 606a 92bb c524 4abc 2410 4f3c
00000180: a4c8 543c 74b5 963b 5107 08bc 8c2b 4ebc
00000190: 5d25 f53a 825a e03b b6eb 90bc 1247 0e3b
000001a0: 11a4 1e3c b2ad c3bb a817 803c 6865 c3bc
000001b0: 1c8b 853c 355c 2e3a 5c55 073b 9927 bb3b
000001c0: e405 1abb 15a6 343a e742 51bc 5421 4b3a
000001d0: 2cd5 90ba 72f3 26b9 2316 b13c 3e48 a33b
000001e0: 2762 283c 5943 94bb 3bf3 02bb 864d 883c
000001f0: c403 cf3b 6193 8c3b 506a eb39 59d3 dd3b
00000200: 7d97 bd3b 4dfe 333a 0b26 91b9 961f f8bb
00000210: e5b2 b43b ff14 053b f9fd ee3b 2366 173b
00000220: 1d80 0b3a af21 a1bb 1b14 e43b bea5 d6bb
00000230: 14bb 3e3b 8c12 debb e451 043c c6a4 d83a
00000240: b1a0 18bc 9749 c4bb 6946 213a f2b8 8ab9
00000250: 9b90 7ebc fafe 58ba 23af e8bb 8ae0 033c
00000260: 5398 bd3a 282b c0ba ac86 59bb c993 89bb
00000270: e908 1bbc 4879 063c 6472 fcbb f725 62bb
00000280: 31db a2bb 8c9f 263c d96d b5bb d4f5 cfbb
00000290: 9adf 353c 21a9 983a b323 993c 9355 783b
000002a0: e23d ca3b ef7f 57bc 4b0b 4d39 49ec 863b
000002b0: a69c 56bb 698a e7bb c392 d43b 66ea 01bb
000002c0: e26c 683b 5e36 26bc e9cc eb3b 112f 8cba
000002d0: 8d70 c4bb 92b2 313c 087e df3b 3e2a 083c
000002e0: 72a3 12bb a908 0a3c fafd 27bb f4fd a8bb
000002f0: 6454 26bc f921 47bb 96f0 cbba f44c 9d3a
00000300: 6580 fdba 485c 663b a447 c03a f556 9738
00000310: 8771 b6ba e5e5 88bc de76 db3b 0462 ed3b
00000320: df71 a8bb aff4 de3b 2425 b13b 805e 873c
00000330: e81b 81bc ceda 1ebc c7f9 2abc be56 afb9
00000340: 6433 8dbc bb13 1ebc 94d6 43bc 3576 39bc
00000350: f0d0 623b 1374 0abb affb 9d3c 919e 3abc
00000360: 2332 6cbb 4b92 2bbc 56c0 bd3a 4a8c 1f3b
00000370: 6bb8 f23b 1a30 2d3b 1573 4aba f9c1 dd39
00000380: 52a4 493b 0df2 08bb 922f d5bb a827 19bc
00000390: e373 083b beb3 a9bb e2c6 033c c742 0639
000003a0: 0411 20bc 79ae ff3b de9d f03b 2798 b13b
000003b0: be69 fabb 0015 55bc 2563 a23b 5395 8f3a
000003c0: fe3a 13bc 0dcf c4b9 2e43 61bc fa2c c7bb
000003d0: 2b2e 0dbc dbee 7bba 2381 c23a 182f 323b
000003e0: 298b 0f3b 081a ebbb 5c1c 87bc cc7e 713b
000003f0: 4f44 593a 6c97 6abb 768d fb3b 2147 013a
0.007792933 0.010922456 -0.014010704 -0.0149833495 0.015104659 0.00753919 -0.0027819953 -0.00818313
0.0051356577 -0.009213511 -0.016202142 0.012050611 -0.0044389847 0.002401169 -0.0017424759 -0.013059124
0.009748002 0.007862193 0.0009507527 -0.000902147 0.00896179 -0.007374806 -0.006445896 0.0144556705
0.012190917 -0.015288214 0.00070145464 -0.0030729042 -0.0071900296 0.014060261 -0.0074277404 0.00074810017
-0.01016771 0.004055038 0.008529549 0.014414423 0.0012461756 0.0032684312 0.0004408501 0.02269523
0.010475596 -0.006231043 -0.0035771485 0.014266016 -0.010079445 0.008189222 0.015225079 -0.009407477
-0.021186272 -0.0005209727 0.0015582266 0.0059799366 -0.0026801277 0.00028347323 0.009200783 -0.023215018
-0.0064959605 -0.0008713044 0.003975852 -0.0045099584 0.0029588493 -0.005193909 -0.010540069 0.0050492194
0.010001305 0.0017382954 0.012443593 -0.012028338 0.015786795 0.0064846636 0.012556474 0.0027137492
0.0053053377 -0.013391987 0.0028201486 0.0051868125 0.008804506 0.0137367705 0.0101951985 -0.011018378
-0.007830326 -0.01597187 -0.0053244783 -0.00037964352 0.0062284973 0.006250514 -0.01034114 -0.016229095
0.018615386 -0.0038226282 -0.00528337 0.011359401 0.0148643395 -0.0044682473 -0.012337868 0.012638126
0.01298729 0.0045992676 -0.008302526 -0.012583625 0.0018703152 0.006846727 -0.01769052 0.0021709842
0.009682671 -0.005971634 0.01563628 -0.023852065 0.016301684 0.0006651313 0.0020650243 0.0057115075
-0.0023502046 0.0006891203 -0.012772298 0.0007748802 -0.0011049858 -0.00015921684 0.021617 0.004982977
0.010277308 -0.00452463 -0.0019981402 0.016638529 0.0063175876 0.00429003 0.00044901902 0.0067695794
0.005785881 0.0006866202 -0.000276849 -0.0075721247 0.00551449 0.0020306704 0.0072934595 0.002310165
0.00053215196 -0.0049173455 0.0069604046 -0.0065505197 0.0029103206 -0.0067771133 0.008076165 0.0016528598
-0.009315656 -0.005990218 0.00061521545 -0.00026459206 -0.015537406 -0.00082777406 -0.007100956 0.00804914
0.0014464952 -0.0014661299 -0.0033191843 -0.0041985256 -0.009462574 0.008207627 -0.007704066 -0.0034507492
-0.0049699773 0.010169875 -0.0055367765 -0.0063464437 0.011100674 0.0011647084 0.01869378 0.0037892803
0.006171928 -0.01315306 0.0001955453 0.004117523 -0.0032747178 -0.0070660603 0.006487222 -0.001982355
0.003546529 -0.010144798 0.007196058 -0.0010695179 -0.0059948624 0.010845797 0.006820444 0.008310853
-0.0022375253 0.008424916 -0.002563356 -0.0051572267 -0.010151956 -0.003038524 -0.0015559371 0.0012001083
-0.0019340633 0.0035150219 0.0014669788 7.216438e-05 -0.0013919332 -0.016711185 0.0066975197 0.0072443504
-0.0051405276 0.006804071 0.005406039 0.016524553 -0.015760377 -0.009695722 -0.010435528 -0.0003344323
-0.017236419 -0.009648259 -0.011953015 -0.011319687 0.00346094 -0.0021126315 0.019285051 -0.011390344
-0.0036040626 -0.010471891 0.0014476876 0.0024345093 0.0074072382 0.0026426376 -0.0007722837 0.00042296926
0.0030768109 -0.0020896227 -0.006505915 -0.009347834 0.0020821027 -0.0051788976 0.008043023 0.00012804112
-0.009769682 0.007802781 0.007343038 0.0054197493 -0.007642 -0.013005495 0.0049556666 0.0010954536
-0.008986233 -0.00037538298 -0.013748927 -0.0060783597 -0.008616964 -0.00096104824 0.0014839511 0.0027188715
0.0021903014 -0.007174734 -0.016493015 0.0036849258 0.0008288072 -0.003579582 0.0076767756 0.00049315585

dec_fc2.bias f4 [512]
00000000: ed4f 343d 1206 c13c b735 243b 4b81 31bd
00000010: 6e5f 5abd c3c6 2dbd 5784 8fbb 7c01 d3bc
00000020: ec35 183c cea9 26bd 7b43 a73d f481 acbd
00000030: cb6a 0d3d 005f 1dbd b7de 24bc 164d b53d
00000040: cf8b 0abd cf51 6f3d 019f b33d 097c 67bd
00000050: 47d3 81bc 08d5 babd f021 c2bd 0a4f 9e3d
00000060: 1e96 28bd 3224 37bc 7a09 a4bc b118 91bd
00000070: 71fc 803d c988 1ebd a79f 09bd aa1f 163c
00000080: 83b2 bfbc b8de eb3b 58e6 3b3d 16d6 703c
00000090: d08d 133d ba85 3ebd afaa 4fbd 3551 70bd
000000a0: 9406 84bd 6bec d3bd 6a77 5abd b8be 6dbd
000000b0: 9ab5 fbbc b8b3 f63c ffcf a5bd 6788 223e
000000c0: a140 36ba 183e 91bd 3f60 6bbd dfc6 ffbc
000000d0: ebb7 123d 853d d03b ecb5 bebd 35c9 a4bc
000000e0: 1fc5 9fbb 00d4 a23d b0ed 15bd db16 04be
000000f0: fb7c 75bc 7da8 b4bc 093a d53b b758 143d
00000100: 9799 3dbd b2d4 babc 98f2 e43c 534b 2b3d
00000110: c452 eabc 2f41 bdbd be53 513d f289 283d
00000120: 10ed 013b 5584 41bd ea44 36bd f513 063d
00000130: 6190 17be 59f2 d83c 7520 43bd e94b 17ba
00000140: 78c5 803d 201e 393d 2f35 b23c 0dbe a9bc
00000150: bd47 7cbd 31ab ddbb 58cd 253d 8c49 043c
00000160: b560 06b8 af35 423d 5506 3bbd 7e07 3e3d
00000170: 1cfb fbbd fb24 82bc ebf2 c03c dba9 4abd
00000180: 6e72 6dbd 63af e83d c5dc 523d 06ee 00be
00000190: af0d bd3c 0e77 2c3d dd4f bebd 1d87 813c
000001a0: 95b6 313d d0bd fab9 4222 0cbd aa44 93bb
000001b0: 75ae 89bd 5414 a2bc 058a e3bc 801f 983c
000001c0: 08c7 2c3c 2838 aabc c23d 13bc a1fb 6fbc
000001d0: d76e bebc c3ff 89bd 2a49 87bd ecb0 8abd
000001e0: 1363 733d 619c 05bd d7bc 5ebc d523 313d
000001f0: 8df3 64bd 0c52 053d 8398 673d 6de0 803b
00000200: 9b84 f1bb 0e5d 5e3c 2f40 18bd f327 5d3c
00000210: 340a 5a3c 1d5c e5bb 0193 a2bc e7d0 6d3c
00000220: 5ad4 c33d 6ebb 90bd 336c 23bd e31b 80bd
00000230: 60cc d9bd d1e1 8fbd dddb 453d 5e13 b13c
00000240: ab38 49bd 559e e8bd 18cf 343d 985c 533d
00000250: 2568 b1bb d1ad d4bd dbcb a1bc 5052 67bd
00000260: 6a8d 93bc 27b8 5d3d 3888 683d c4b7 aa3d
00000270: d143 4b3d 3e82 e2bd 048e 28bd d782 0c3d
00000280: a13b 823c f00d 603d 105d 243c 2619 433c
00000290: 3d9c 67bd 942e 213b 58f4 6bbc 8740 cdbc
000002a0: e9fb bcbd c0c4 8ebc 3d84 043b 8a14 61bd
000002b0: 30df aa3d 5b99 b3bd 7d8b 3d3d 29ba f837
000002c0: aa61 46bd 4b87 293d eaa3 b5bc f180 19bd
000002d0: 6491 ccbc 87e7 433c 18b8 c6bd ccc7 40bd
000002e0: 3b68 49bc 2db9 83bc 27ee 703d cb72 9f3d
000002f0: 9fa8 96bc 3cb3 57bd 0689 9d3d 2dde b7bc
00000300: 5023 89bd 72ed b6bc e1b1 b23d bffc 60bd
00000310: 3688 153d bdd1 c7bd dfdf 50bd b6fa 71bd
00000320: f35a 1fbd 9391 bbbd 6382 aa3d 84fd 1a3d
00000330: 6049 69bd 617d eb3c 1696 2b3d cc32 10bd
00000340: aabf cb3d b881 f03c 27d4 183d 7312 0dbd
00000350: a735 fd3d 7608 89bc 7cfe eabd 3e1c bd3c
00000360: c55a 0a3d d955 8fbd 9d46 593d d9e4 bcbc
00000370: 8ee2 933c c596 aebc 182f 38bd 98b4 4cbc
00000380: a486 9ebd 369b b03c 0179 5ebc 58ad 89bd
00000390: 29c4 e9bc 1dde 36bd ec34 383c af4e 02be
000003a0: aee4 33bb 44a0 5b3c 5e0b cbbc 32d9 83bd
000003b0: 8b37 e3bd 3d7b cf3d 39a9 933d 36f0 393d
000003c0: f0af aabd 87cb a5bd 679b 3cbd dfe9 e23c
000003d0: 16aa b9bd 0e51 653c d54c 61bd 515f ba3c
000003e0: 2234 933c 7ac8 7e3d eb93 b3bd 4440 b4bc
000003f0: e043 143d f846 9cbc 9ce5 f1bd aa7b bfbc
0.044021536 0.023562465 0.002505643 -0.043336194 -0.053313665 -0.042425882 -0.00437979 -0.025757544
0.0092902 -0.040689282 0.08167168 -0.08423224 0.034525674 -0.038420677 -0.010062865 0.088525936
-0.033824738 0.058427628 0.08770562 -0.056514774 -0.015847815 -0.09122664 -0.09479129 0.07729919
-0.041158788 -0.011178063 -0.02002405 -0.07084788 0.062981494 -0.038704667 -0.033599522 0.009162823
-0.02340055 0.007198181 0.04587397 0.01469948 0.036023915 -0.04651425 -0.050699886 -0.058671195
-0.06446567 -0.103478275 -0.05333654 -0.05804321 -0.030726243 0.030114993 -0.08096313 0.15872346
-0.00069523795 -0.070919216 -0.057464834 -0.031222759 0.03581993 0.00635499 -0.093120426 -0.020115474
-0.0048757936 0.07950592 -0.03660363 -0.12899344 -0.014983411 -0.022052998 0.0065071625 0.036217418
-0.046289053 -0.0228065 0.027947709 0.04181988 -0.028603919 -0.092409484 0.051105253 0.04114718
0.0019825138 -0.047245342 -0.044499315 0.032733876 -0.1480117 0.026482748 -0.047638375 -0.00057715044
0.06287664 0.045194745 0.021753876 -0.020720506 -0.061591852 -0.0067647924 0.040479034 0.008074176
-3.2038155e-05 0.047414478 -0.045660336 0.046393864 -0.12303755 -0.015886774 0.023553332 -0.049478393
-0.057970457 0.11361577 0.051480073 -0.12590799 0.023077814 0.042105727 -0.092925765 0.015811497
0.043387014 -0.00047825137 -0.03421236 -0.0044942694 -0.06722728 -0.019785084 -0.027775774 0.018569708
0.0105455 -0.02077873 -0.008986892 -0.014647395 -0.023246212 -0.06738236 -0.06605752 -0.067720264
0.059420656 -0.032619838 -0.013594828 0.043247063 -0.05589633 0.03254895 0.05654193 0.0039330036
-0.007370544 0.013571991 -0.037170585 0.013498294 0.013308097 -0.006999506 -0.019845488 0.014515138
0.09561987 -0.070669994 -0.03989811 -0.06255319 -0.106346846 -0.07025493 0.04830538 0.02161568
-0.04912631 -0.113583244 0.044142812 0.051601976 -0.0054140263 -0.10384715 -0.019750526 -0.056474984
-0.018011767 0.0541307 0.056770533 0.08335832 0.04962522 -0.11059998 -0.04115106 0.034304466
0.015897574 0.05470079 0.010031953 0.011907851 -0.056545485 0.0024594413 -0.014401518 -0.025055183
-0.092277355 -0.017427802 0.0020220422 -0.05495123 0.08343351 -0.087694846 0.046275605 2.9650591e-05
-0.048432983 0.04138879 -0.022172887 -0.037476484 -0.024971671 0.011957056 -0.09703082 -0.04706554
-0.012292917 -0.01607951 0.05882087 0.07785567 -0.018390952 -0.052661166 0.07692151 -0.022444809
-0.066961884 -0.02233002 0.08725334 -0.054928537 0.036506854 -0.09756801 -0.05099475 -0.059076987
-0.038905095 -0.091586255 0.083256505 0.037839428 -0.05695474 0.028746309 0.04189118 -0.035204694
0.099486664 0.02935873 0.0373117 -0.034441423 0.12363749 -0.016727667 -0.1147432 0.023084756
0.03377797 -0.06998796 0.053045858 -0.023058342 0.018052366 -0.021312127 -0.044966787 -0.012494229
-0.077405244 0.021558385 -0.013578654 -0.06722516 -0.02853592 -0.044645417 0.011243086 -0.12725328
-0.0027449536 0.0134049095 -0.024785694 -0.06437911 -0.11094578 0.10130928 0.07210011 0.0453951
-0.08334339 -0.080954604 -0.04604664 0.027699409 -0.090656444 0.013996376 -0.055004913 0.022750529
0.017969195 0.062202908 -0.087684475 -0.0220033 0.036197543 -0.01907681 -0.11811373 -0.023374397
