MUSC/checkpoints/t2t_ch_snr5.pth (torch, 528415 bytes, 4 tensors)

enc_fc1.weight f4 [128, 512]
0	0xbc0c19aa	-0.008551041
1	0xbc274a04	-0.010210518
2	0x3cd427ac	0.025897823
3	0x3d2e631f	0.042574998
4	0xbca534ff	-0.020166872
5	0x3dc12fe1	0.0943296
6	0x3d2ebc7e	0.04266023
7	0x3ab44bfb	0.0013755554
8	0x3d313a06	0.043268226
9	0xbc9fac11	-0.019491227
10	0x3badee12	0.005307921
11	0xbba74727	-0.0051049176
12	0x3c600b5a	0.013674581
13	0x3d9307a2	0.0717919
14	0xbd54094d	-0.051766682
15	0xbd8d8d5a	-0.06911726
16	0xbc6a3b33	-0.014296341
17	0x3cfcb717	0.030849023
18	0x3ce0477d	0.027377838
19	0xbd33d87c	-0.043907627
20	0xbd3d32fd	-0.046191204
21	0x3d1415e1	0.036153678
22	0xbc40012d	-0.01171903
23	0x3cde6ecf	0.027152447
24	0xbd323761	-0.043509845
25	0x3cd5fa4b	0.026120326
26	0xbd38a591	-0.04507977
27	0xbb6b2cbd	-0.003588482
28	0x3ce0a683	0.027423149
29	0x3bc5d8d6	0.0060378117
30	0xbd579cb6	-0.052639686
31	0xbc6d4bb1	-0.014483378
32	0x3d8ed108	0.06973463
33	0xbcde74b9	-0.027155267
34	0x3d18617d	0.037202347
35	0xbd21e70e	-0.03952699
36	0xbcd97cdc	-0.026548795
37	0xbcbe07b3	-0.02319703
38	0xbd180897	-0.037117567
39	0xbc1e069f	-0.009645133
40	0xbcfb7633	-0.03069601
41	0xbd518e48	-0.05116108
42	0xbcb29a75	-0.021802166
43	0x3cd77ea4	0.026305504
44	0xbd39b3dc	-0.045337543
45	0xbc7549e5	-0.014971231
46	0x3cd20b0d	0.025640035
47	0xbd264f45	-0.04060294
48	0xbd1bf5f0	-0.03807634
49	0xbd48f708	-0.049063712
50	0xbca3d4f0	-0.019998997
51	0x3d3551e0	0.044267535
52	0xbde44f83	-0.11147978
53	0xbd70333f	-0.058642622
54	0x3b586549	0.0033019355
55	0x3e0168b8	0.12637603
56	0x3d607435	0.054798324
57	0x3cf6d1b7	0.030129297
58	0xbd7c416a	-0.06158582
59	0x3d282b03	0.041056644
60	0x3d7e02fd	0.06201457
61	0x3ad26cc2	0.0016054141
62	0xbd31ba11	-0.043390337
63	0xbddcaf3d	-0.107756115
64	0x3dc4c810	0.096084714
65	0xbcdce2c3	-0.026963597
66	0x3b843778	0.0040349327
67	0xbd3a83b7	-0.04553577
68	0x3a6d0935	0.00090422045
69	0x3cdaeab7	0.026723249
70	0xbc12ee03	-0.008967879
71	0xbd845ff6	-0.064636156
72	0x3bf6ddfc	0.007533787
73	0x3d84f4a5	0.06491975
74	0xbcbda537	-0.02315007
75	0x3caeb104	0.021324642
76	0x3d60c3a8	0.054874092
77	0x3ce7330b	0.028222581
78	0xbce3833c	-0.027772538
79	0xbd20ebd1	-0.039287392
80	0xbd2b93d7	-0.041889038
81	0x3d1c907c	0.03822373
82	0xbc569c8c	-0.013098847
83	0x3bfa20e5	0.007633316
84	0xbd24802c	-0.040161297
85	0x3ccc3075	0.02492545
86	0xbbf7e81f	-0.007565513
87	0x3c29a335	0.010353853
88	0xbd46806b	-0.048462313
89	0x3ccce3ed	0.025011027
90	0x3cc2bbb3	0.023771143
91	0x3d169cb4	0.036770537
92	0xbc9559df	-0.01823133
93	0x3d3fd999	0.046838377
94	0xbcad4d32	-0.021154974
95	0x3d12e184	0.0358596
96	0xbc39506e	-0.01131068
97	0x3d6e8fc7	0.058242586
98	0x3d2d38ae	0.042290382
99	0xbd01131e	-0.031512372
100	0xbd9939d7	-0.07481735
101	0xbc08439c	-0.008316901
102	0xbac694d5	-0.0015150557
103	0xbc217233	-0.009853887
104	0xbc34f776	-0.011045327
105	0xbc2727f3	-0.010202396
106	0x3d6171ae	0.055040054
107	0x3b9014be	0.004397004
108	0x3d0c27c9	0.03421763
109	0xbcc9f53d	-0.024653072
110	0x3d1c586e	0.03817027
111	0xbce57402	-0.028009418
112	0x3b5999ca	0.0033203238
113	0x3d6cd270	0.057817876
114	0xbcd4a839	-0.025959121
115	0xbc90d7cc	-0.017681025
116	0x3c883a0c	0.016629241
117	0xbbccfc61	-0.006255672
118	0x3cc976f0	0.024592847
119	0x3d03f214	0.032213286
120	0x3c445b9a	0.01198473
121	0xbdad529f	-0.08463024
122	0xbb76f3a2	-0.0037681838
123	0x3d691891	0.056908194
124	0xbd184e09	-0.037183795
125	0xbc95d896	-0.018291753
126	0x3d846ebf	0.06466436
127	0x3c9dcf01	0.019263746
128	0x3d588167	0.052857783
129	0x3c4d1096	0.012516161
130	0x3d01ab7a	0.031657673
131	0x3b98d288	0.004663769
132	0xbd391b50	-0.045192063
133	0x3bb86d83	0.005628289
134	0xbcf0b88b	-0.029384872
135	0xbc5413d9	-0.012944185
136	0x3d828b63	0.06374242
137	0x3dcbcd1c	0.09951231
138	0x3dbc9667	0.092083745
139	0xbd3056f7	-0.043051686
140	0xbda9bc87	-0.08287912
141	0xbd2b99e8	-0.041894823
142	0xbb546c0d	-0.0032413036
143	0x3cb584ba	0.022158016
144	0xbca580c5	-0.020203004
145	0xbc4321e2	-0.011909934
146	0xbccbd036	-0.024879556
147	0x3d27a290	0.040926516
148	0xbc085bde	-0.008322684
149	0x3d15c6e9	0.03656665
150	0x3c31af1c	0.010844972
151	0xbcf24b4d	-0.029576922
152	0x3c4e29de	0.012583224
153	0xbcf64ba9	-0.030065374
154	0xbca93f67	-0.020660115
155	0x3ccd9ca7	0.025099112
156	0x3dac5a9c	0.0841572
157	0x3c9ebd77	0.019377453
158	0x3da27857	0.07933109
159	0x3d828073	0.06372156
160	0x3d237acb	0.039912026
161	0x3e010695	0.12600167
162	0xbd4c0728	-0.049811512
163	0xbc57dfa5	-0.01317588
164	0x3ce1184d	0.027477408
165	0xbd4d9259	-0.050188396
166	0x3d96806d	0.07348714
167	0x3dba017d	0.09082315
168	0xbd1f698f	-0.038919028
169	0xbd1b4ba6	-0.03791394
170	0xbd5dedc6	-0.054181837
171	0x3c6019e2	0.013678046
172	0x3b2f14a5	0.0026715186
173	0xbd196592	-0.03745038
174	0xbd2ff7e5	-0.04296102
175	0x3cd069f8	0.025441155
176	0xbaf09f57	-0.0018358034
177	0x3c8a1d37	0.016859634
178	0x3df3fda9	0.11913616
179	0x3cfbfa85	0.030759105
180	0xbcaf801b	-0.02142339
181	0x3bdf1c8c	0.006808823
182	0x3c91ceb4	0.017798759
183	0xbd300b41	-0.042979483
184	0xbcd21995	-0.025646964
185	0x3c040377	0.008057467
186	0xbb8fbab1	-0.004386269
187	0xbda96038	-0.082703054
188	0x3ceb02cc	0.028687857
189	0xbc4493ad	-0.011998099
190	0xbd2fd53c	-0.042927966
191	0x3cfdfdb2	0.03100476
192	0xba649717	-0.0008720024
193	0x3d5d9737	0.054099288
194	0x3d9f12be	0.07767247
195	0x3d1e636d	0.03866904
196	0x3db37fd7	0.08764618
197	0x3bb76103	0.0055962815
198	0xbce545dd	-0.027987415
199	0xbcf2f40e	-0.02965739
200	0x3ce2c2e6	0.027680825
201	0xbd01cd7f	-0.031690117
202	0xbd482dbc	-0.04887174
203	0xbbdbf370	-0.0067123696
204	0xbcf748ec	-0.030186139
205	0x3abea75d	0.0014545728
206	0x3da65dfb	0.08123394
207	0x3d5deeb8	0.054182738
208	0xbc4fde91	-0.012687341
209	0xbe03b93e	-0.12863633
210	0x3d10777d	0.035270203
211	0x3d3bc87a	0.045845486
212	0x390cadd7	0.00013416201
213	0xbc9bd1fc	-0.019021027
214	0x3d21b812	0.039482184
215	0xbd2425b2	-0.04007501
216	0x3c0eebb2	0.008723186
217	0xbd5b75a6	-0.053578995
218	0x3b3646df	0.0027813239
219	0x3d49372e	0.04912489
220	0x3d18750c	0.037221
221	0xbae26a64	-0.0017274139
222	0xbd4b91c7	-0.04969957
223	0xbc925173	-0.017861104
224	0xbd599391	-0.053119246
225	0xbdc11857	-0.094284706
226	0xbc3a90c4	-0.011387054
227	0x3b90eaee	0.004422537
228	0x3b3108f7	0.00270134
229	0xbcbdda17	-0.023175282
230	0xbd9a046c	-0.07520375
231	0xbd345bdb	-0.044032913
232	0x3badce73	0.0053041517
233	0x3ac16b49	0.0014756705
234	0xbc287529	-0.010281839
235	0x3c85594d	0.016277933
236	0x3b93ac17	0.0045065987
237	0xbd9f80f0	-0.07788265
238	0x3d8a48da	0.067521766
239	0x3d68f682	0.056875713
240	0x3d752cdb	0.05985723
241	0xbccf37a2	-0.025295082
242	0x3a77d626	0.0009454213
243	0x3a867ede	0.0010261198
244	0xbcc564a3	-0.024095839
245	0xbc385b45	-0.011252229
246	0xbc4409be	-0.011965213
247	0x3c151b99	0.009100818
248	0xbd72a8db	-0.059243064
249	0x3d1753ef	0.03694528
250	0x3cbb259f	0.022845088
251	0x39db4a83	0.0004182645
252	0x3a255454	0.00063068164
253	0xbc7e86c2	-0.015535058
254	0xbd23a627	-0.039953377
255	0x3d7f1a52	0.06228096

enc_fc1.bias f4 [128]
0	0xbc468b16	-0.012118122
1	0x3d0396f2	0.032126375
2	0x3cef001b	0.029174855
3	0xbd24135c	-0.040057525
4	0xbcab2daf	-0.020895807
5	0x3d1029f7	0.03519627
6	0x3cda0635	0.026614288
7	0x3cf6efa0	0.030143559
8	0x3d16b632	0.03679485
9	0x3c9658d9	0.018352913
10	0x3c9c8291	0.019105228
11	0xbd185834	-0.037193492
12	0xbd4fbc9a	-0.050716974
13	0x3cb45412	0.022012744
14	0x3c4e5f2b	0.012595932
15	0x3c8d0270	0.017213076
16	0x3ae2643f	0.0017272307
17	0xbda1d0a6	-0.07901125
18	0x3d5cd43f	0.05391335
19	0xbd2622c6	-0.040560506
20	0xbcf089fd	-0.029362673
21	0x3be7c08f	0.0070725153
22	0x3cac11b5	0.021004537
23	0xbc82f1cc	-0.015984438
24	0x3bc1adbf	0.0059106047
25	0x3d316bd1	0.043315712
26	0x3d352679	0.044226144
27	0x3d3ebdaa	0.046567596
28	0xbcb55edb	-0.022139957
29	0x3d65ecf0	0.056134164
30	0xbcae06ae	-0.02124342
31	0x3a21fc95	0.00061793
32	0x3c5ab68a	0.013349185
33	0x3c9d21c5	0.019181142
34	0x3d2bf054	0.04197724
35	0xbcb5acb4	-0.022177078
36	0x3bd5289d	0.0065050856
37	0x3cb7be05	0.022429476
38	0x3cd0eed6	0.02550451
39	0xbc60d44c	-0.0137224905
40	0xbc12f777	-0.008970133
41	0x3d0a8811	0.03382117
42	0x3c5b8eb1	0.0134007195
43	0x3d1a3ede	0.03765761
44	0xbd15c07f	-0.03656053
45	0xbc9af334	-0.018914796
46	0xbd9f80b0	-0.07788217
47	0x3c826db8	0.015921459
48	0xbd91bcfd	-0.07116125
49	0x3cc95874	0.02457831
50	0x39689867	0.00022182018
51	0xbcacf94a	-0.021114964
52	0xbce6b6cb	-0.028163334
53	0x3b9b6736	0.0047425283
54	0xbd296f15	-0.0413657
55	0x3cedbdc9	0.02902116
56	0x3cfdbca8	0.030973747
57	0xbd45de00	-0.04830742
58	0xbccf6b02	-0.02531958
59	0x3bcb38f6	0.0062018586
60	0x3caeb874	0.021328188
61	0xbc4d188f	-0.012518062
62	0xbb406203	-0.0029355295
63	0xbc9c7b63	-0.019101804
64	0x3c4a64ff	0.012353181
65	0xbca5e8e7	-0.020252658
66	0xbd1c894e	-0.03821688
67	0xbd4a2b7b	-0.049357872
68	0xbd176806	-0.03696444
69	0xbd07e98c	-0.033181712
70	0x3c8bcf44	0.017066605
71	0xbba51cb8	-0.005038824
72	0xbbe585bc	-0.007004468
73	0xbd7d1d03	-0.061795246
74	0x3c8de406	0.017320644
75	0xbbba6e52	-0.0056894207
76	0xbc14b669	-0.009076693
77	0x3be7c5c8	0.007073138
78	0x3b0a7d3d	0.0021131777
79	0x3ad34c48	0.0016120756
80	0x3d1d997f	0.038476463
81	0x3cca9cef	0.024733035
82	0x3d8304ea	0.06397422
83	0xbcc058da	-0.023479868
84	0xbd1aa3e5	-0.03775396
85	0xbd3be192	-0.045869417
86	0x3ac5234f	0.001504043
87	0x3d26690c	0.040627524
88	0x3b8d9e4f	0.0043218504
89	0xbd4211e1	-0.047380332
90	0xbb096cf9	-0.0020969494
91	0x3c4d3192	0.0125240255
92	0xbd7c811b	-0.061646562
93	0xbca92f07	-0.020652307
94	0xbd5a4bd6	-0.05329498
95	0x3932ee2e	0.00017064132
96	0xbd1ed232	-0.038774677
97	0x3d3c86b9	0.04602692
98	0xbbee169b	-0.0072658784
99	0x3ab8cab3	0.0014098495
100	0xbd2a5cac	-0.041592285
101	0xbcf82cd5	-0.030294815
102	0x3bbc0fff	0.0057392116
103	0x3d064762	0.03278292
104	0x3c8e40a3	0.017364806
105	0xbcdeb079	-0.027183758
106	0x3d0e660f	0.0347653
107	0xbd242dcc	-0.040082738
108	0x3c0df0f1	0.008663402
109	0xbd37b6cd	-0.044852067
110	0x3c227cb3	0.009917426
111	0xbd26d367	-0.040728953
112	0x3d70fc99	0.058834646
113	0x3d33b010	0.04386908
114	0xbcaa6074	-0.020797946
115	0x3c1f613d	0.009727773
116	0xbca42173	-0.020035481
117	0x3ce99606	0.02851392
118	0xbd26f8ff	-0.040764805
119	0xbca1d3d3	-0.019754326
120	0xbc33390a	-0.010938892
121	0x3c6a3ac1	0.014296235
122	0x3cfb9869	0.030712323
123	0xbd10b8fc	-0.035332665
124	0x3d3f2dbc	0.046674475
125	0x3c7729ef	0.015085681
126	0x3c65fd19	0.014037394
127	0x3d65c12b	0.056092422

dec_fc2.weight f4 [512, 128]
0	0x3be70d0a	0.007051115
1	0x3b539174	0.0032282742
2	0xbc33927f	-0.01096022
3	0xbc8f42d3	-0.017487919
4	0x3cb8e0b0	0.022568077
5	0x3c38a133	0.011268902
6	0xbb9180a5	-0.0044403845
7	0xbb924ba5	-0.004464584
8	0x3cd081ce	0.02545252
9	0xbba18a2b	-0.004929801
10	0xbd0cac81	-0.0343442
11	0x3ccb6e11	0.024832757
12	0x3be113e9	0.0068688286
13	0x3c34400e	0.0110016
14	0xbbaba5e5	-0.005238282
15	0xbc985061	-0.018593015
16	0x3cce226f	0.025162904
17	0x3c943ddb	0.018095901
18	0xbba8a9a0	-0.005147174
19	0x3a0d0277	0.00053790904
20	0x3d2196c5	0.039450426
21	0xbc723360	-0.014782757
22	0xbc3dddd2	-0.011588531
23	0x3ccd87f1	0.025089236
24	0x3bbe7b36	0.0058130277
25	0xbcfde527	-0.030993057
26	0x3c21a065	0.009864901
27	0xbbb65188	-0.0055639185
28	0xbc3792ef	-0.011204465
29	0x3b0b8cbb	0.0021293599
30	0xbc692348	-0.014229603
31	0x3b8881db	0.0041658706
32	0xbc1994a6	-0.009373819
33	0x3a620280	0.00086215883
34	0x3c158472	0.009125816
35	0x3cbc43c6	0.022981536
36	0xbb1550f5	-0.002278385
37	0x3b3e3c0a	0.0029027485
38	0x3c199f3e	0.009376345
39	0x3c00328e	0.007824553
40	0x3c8b753f	0.01702368
41	0xbc1d1927	-0.009588516
42	0xbbf1723b	-0.0073683537
43	0x3cd846b8	0.026400909
44	0xbc8e5d2f	-0.017378418
45	0x3c856d1e	0.016287383
46	0x3c7e37fe	0.015516279
47	0xbb1e1a65	-0.002412462
48	0xbcd68575	-0.026186684
49	0xbb8ea5f2	-0.0043532783
50	0xba227124	-0.0006196669
51	0x3c993ad9	0.018704819
52	0xbc1b376d	-0.009473664
53	0x3c293070	0.01032649
54	0x3b279be0	0.0025575086
55	0xbbb3e0ff	-0.005489468
56	0xbbc0b749	-0.0058812243
57	0x3b3d6721	0.002890058
58	0x3c3795a1	0.011205108
59	0xb9adfdab	-0.0003318613
60	0x3bb41f55	0.005496899
61	0xbaedd200	-0.001814425
62	0xbcbba6dd	-0.022906715
63	0x3ba4171f	0.005007639
64	0x3ca5f6bd	0.020259256
65	0x3b97111f	0.0046101953
66	0x3c5f8467	0.013642407
67	0xbca99303	-0.020699983
68	0x3c63a890	0.013895169
69	0x3c6a4653	0.014298993
70	0x3c53a97b	0.012918825
71	0xba7cbd8b	-0.0009641281
72	0x3c003c22	0.007826837
73	0xbc821d9a	-0.015883256
74	0x3c390abf	0.011294066
75	0x3b4f7139	0.003165318
76	0x3c813ac3	0.01577509
77	0x3cea20d2	0.028580103
78	0x3c3d35ed	0.011548501
79	0x3a4006f1	0.0007325253
80	0xbca03bcb	-0.019559762
81	0xbc31dcb0	-0.010855839
82	0xbbd34262	-0.0064471224
83	0xbba3a725	-0.0049942904
84	0x3baea65b	0.0053298897
85	0x3a1c917c	0.00059726066
86	0xbca57217	-0.020196004
87	0xbcd2c55f	-0.02572888
88	0x3d24a24b	0.040193837
89	0xbaa47a4e	-0.0012548657
90	0xba3e60cf	-0.00072623504
91	0x3ba92974	0.0051624123
92	0x3ce0e81a	0.027454425
93	0xbc08d28c	-0.00835098
94	0xbc993193	-0.018700397
95	0x3b712032	0.0036792872
96	0x3cd260a6	0.025680851
97	0x3ad211ce	0.0016027035
98	0xbb8d0502	-0.0043035755
99	0xbca088c2	-0.019596461
100	0x3b31163e	0.0027021314
101	0x3b76cebe	0.003765985
102	0xbcad41b8	-0.021149501
103	0x3b185d2c	0.0023248894
104	0x3c2373ae	0.009976311
105	0xbc1a4e27	-0.009418047
106	0x3cfa3775	0.030544022
107	0xbd104c8d	-0.035229255
108	0x3cb11bf7	0.02161978
109	0xbc34048f	-0.010987415
110	0x3bd8ceca	0.006616448
111	0x3d0a3fd5	0.03375228
112	0xbab2de7e	-0.001364663
113	0x3b671319	0.0035259186
114	0xbc118c49	-0.008883544
115	0xbbf81824	-0.007571237
116	0x3b7b10d2	0.0038309586
117	0xbbb9eafa	-0.0056737633
118	0x3d372cdd	0.04472052
119	0x3b765834	0.0037589194
120	0x3cdae5a1	0.026720824
121	0x3c15d1a6	0.009144222
122	0x3c04d52d	0.008107466
123	0x3cbbdcf1	0.022932502
124	0x3be1cdcd	0.0068909884
125	0x3c046f92	0.008083241
126	0x3ac8b967	0.0015314043
127	0x3c00a2bf	0.007851302
128	0x3a63d1bd	0.0008690616
129	0xbc29ef86	-0.010372048
130	0xbae92331	-0.0017786977
131	0xbbf94fa0	-0.007608369
132	0x3c64feaf	0.013976737
133	0xbc0618c0	-0.008184612
134	0x3baa664c	0.005200183
135	0x3b341aee	0.0027481872
136	0x3a76503c	0.0009396111
137	0x3ab5af31	0.0013861415
138	0x3c5fa0d5	0.013649185
139	0x3a65ec70	0.00087708887
140	0x3bc37772	0.0059651667
141	0x3b9d6eed	0.004804483
142	0x3c596c2d	0.01327042
143	0x3ba23316	0.0049499376
144	0xbc39df30	-0.011344716
145	0x3a527601	0.0008028448
146	0xbbda2b27	-0.006657976
147	0x3ae0f200	0.0017161965
148	0xbcaf1605	-0.021372804
149	0xbc669328	-0.014073171
150	0xbc59be2c	-0.013289969
151	0x3c8b3b1e	0.016995963
152	0xbba65021	-0.00507547
153	0xbc5a6ae3	-0.013331148
154	0xbc046ac8	-0.008082099
155	0xbc3e2054	-0.011604387
156	0xbc27a040	-0.010231078
157	0x3cc57f78	0.024108633
158	0xbc38f9f7	-0.011290065
159	0xbbe7c688	-0.0070732273
160	0xbc87c6d4	-0.0165743
161	0x3c80eaaf	0.015736906
162	0xbbb4d9e2	-0.0055191377
163	0xbbd0adb3	-0.006368363
164	0x3c413384	0.011792067
165	0xbc224acc	-0.009905528
166	0x3cb8c59e	0.022555169
167	0xbbc19aa0	-0.0059083253
168	0x3c8d3005	0.017234812
169	0xbcf47279	-0.029839741
170	0xbb154f3c	-0.0022782823
171	0x3b4e4b02	0.0031477814
172	0x3af31b4c	0.0018547564
173	0xbc618027	-0.013763464
174	0x3b27e16a	0.0025616535
175	0xbb58bdb9	-0.0033072068
176	0x3904dc22	0.00012670507
177	0xbc417136	-0.011806777
178	0x3c14d2f9	0.009083503
179	0xba59ce8c	-0.0008308671
180	0xbc45cec2	-0.012073221
181	0x3a112eaf	0.00055382674
182	0x3c7960e2	0.015220853
183	0x3b919dfa	0.004443881
184	0xbb35e4a5	-0.002775469
185	0x3c264cb9	0.010150128
186	0xbbf79162	-0.007555173
187	0xbcd51f6b	-0.026015958
188	0xbc91b719	-0.017787503
189	0xbbfab9fc	-0.0076515656
190	0x3bd518f4	0.006503219
191	0xbb5b7751	-0.0033487866
192	0x3c6c4984	0.014421824
193	0x3b89e58c	0.0042082723
194	0x3a28ff2f	0.0006446717
195	0xbc74fd11	-0.014952914
196	0x3c2be227	0.010490931
197	0xbcccabd9	-0.024984287
198	0x3c21f5a4	0.009885225
199	0x3cbde0ed	0.023178542
200	0xbb8bc603	-0.004265548
201	0x3c7c4125	0.015396391
202	0x3c4fa698	0.012673996
203	0x3c2f4e5e	0.010699837
204	0xbcc66db8	-0.02422224
205	0xbbb65631	-0.005564474
206	0xbcc4f9ec	-0.024044953
207	0xbb076621	-0.0020660239
208	0xbc93be13	-0.01803497
209	0x3b67a576	0.0035346425
210	0xbbc18696	-0.0059059365
211	0xbc80a5c3	-0.015704041
212	0x3c0c7c64	0.008574579
213	0xba4bc1a6	-0.00077726913
214	0x3c9a65cb	0.018847367
215	0xbc874bc0	-0.016515613
216	0xbc6092ca	-0.013706872
217	0xbcee549b	-0.029093077
218	0x3cb146b9	0.021640169
219	0x3c4566e4	0.012048457
220	0x3b94adc2	0.004537315
221	0x3bbb1d3f	0.0057102735
222	0x3b4b49c0	0.00310193
223	0xbc55d4e3	-0.013051244
224	0xbc13963e	-0.0090079885
225	0xbbad964e	-0.0052974587
226	0x3a0c6136	0.0005355062
227	0xbc62045e	-0.0137949865
228	0x3bf53e18	0.007484209
229	0xbbdd923d	-0.0067618177
230	0x3c093925	0.008375441
231	0xbbca0f2b	-0.006166359
232	0xbc9cb8dc	-0.019131117
233	0xbbbd3c66	-0.0057750223
234	0xbaa322b9	-0.0012446261
235	0x3bf61e64	0.007510947
236	0x3a909274	0.0011029975
237	0xb9484120	-0.00019097747
238	0x3c544c2f	0.012957617
239	0x3a85b17d	0.001019999
240	0xbb963e3b	-0.004585055
241	0xbb9e480b	-0.0048303655
242	0xbc5f3c67	-0.013625241
243	0xbcb9afe9	-0.022666888
244	0xbc241d4c	-0.010016751
245	0x3b0b4466	0.0021250485
246	0x3a4239d7	0.00074091315
247	0x3b748610	0.0037311353
248	0x3c113175	0.008861889
249	0xbc73e8c4	-0.014887039
250	0xbd0fbfd3	-0.035095047
251	0x3c76ea0b	0.015070449
252	0xbc2bd8f0	-0.010488734
253	0x3bc15d91	0.0059010466
254	0x3c5c3a1a	0.013441587
255	0xbb8a7d52	-0.004226365

dec_fc2.bias f4 [512]
0	0x3d2d6aca	0.04233817
1	0x3c8a021d	0.01684671
2	0xbc124af5	-0.008929004
3	0xbca2ad81	-0.019858124
4	0xbd783438	-0.060596675
5	0xbd4e6956	-0.050393425
6	0xbd177b79	-0.036982987
7	0xbbd04a22	-0.0063564936
8	0xbc9d9294	-0.019234933
9	0xbce2f196	-0.027703088
10	0x3d515c41	0.05111337
11	0xbdbb03e0	-0.091315985
12	0x3ce77879	0.028255688
13	0xbc8053ca	-0.015664954
14	0x3c74955d	0.014928189
15	0x3d5b18ea	0.053490557
16	0xbd34e10e	-0.04415994
17	0x3d83e66b	0.06440433
18	0x3daf939a	0.08573075
19	0xbd10ae8e	-0.03532272
20	0x3cdea533	0.027178383
21	0xbd954767	-0.072890095
22	0xbd87fd8c	-0.06640157
23	0x3da0a3a6	0.078437135
24	0xbc7a8fbc	-0.015293058
25	0x3cd13d41	0.025541903
26	0xbc1d8ece	-0.009616567
27	0xbd979188	-0.07400805
28	0x3d913d5f	0.07091784
29	0xbc9007ba	-0.01758181
30	0xbcc64460	-0.024202526
31	0x3c93c029	0.018035965
32	0xbcc51cfc	-0.024061672
33	0xbb449007	-0.0029993074
34	0x3d8ff3cf	0.07028925
35	0x3d3d9348	0.046283036
36	0x3d43d638	0.047811717
37	0xbbecc07e	-0.0072250953
38	0xbcdddd0c	-0.027082942
39	0xbcfa25e3	-0.030535644
40	0xbcc1c7df	-0.023654876
41	0xbdb6d6db	-0.08927699
42	0xbc11d152	-0.0089000035
43	0xbcd8877a	-0.026431788
44	0xbc681be1	-0.014166803
45	0x3cb9538b	0.022622844
46	0xbd94e682	-0.072705284
47	0x3ddf04d9	0.108895965
48	0xbbcc57d6	-0.006236057
49	0xbd9eefc9	-0.07760579
50	0xbd94a435	-0.072578825
51	0xba675cca	-0.00088257773
52	0x3cccda22	0.025006358
53	0x3d1fa4cd	0.038975526
54	0xbd9b769a	-0.07590981
55	0xbcfd1470	-0.030893534
56	0xbc845bbf	-0.01615703
57	0x3d87fa8b	0.06639584
58	0xbcdc1766	-0.026866626
59	0xbd94c4fb	-0.072641335
60	0xbbd4460a	-0.006478076
61	0x3ba8985f	0.005145117
62	0x3ac8307f	0.0015273242
63	0x3d0aec91	0.033917014
64	0xbc663353	-0.014050323
65	0xbcaea585	-0.02131916
66	0x3d149fa0	0.036285043
67	0x3d58c441	0.052921537
68	0x3c4ddc45	0.012564723
69	0xbdbc731b	-0.09201642
70	0x3cb0c786	0.021579515
71	0x3c7e4996	0.015520474
72	0x3d23dd3c	0.040005907
73	0xbd47926d	-0.048723627
74	0xbd1ff8c0	-0.039055586
75	0x3d759392	0.059955187
76	0xbdee1af5	-0.116262354
77	0x3ce2c931	0.027683826
78	0xbd5162d8	-0.051119655
79	0xbd3ff006	-0.046859764
80	0x3d25d875	0.040489633
81	0x3d729796	0.059226595
82	0x3d0191dd	0.031633247
83	0xbcd46295	-0.025925914
84	0xbd4b50b8	-0.049637526
85	0x3c821d3f	0.015883086
86	0x3d85d529	0.06534798
87	0x3ca33ea7	0.019927336
88	0x3c429a45	0.011877601
89	0x3d886eea	0.0666178
90	0xbd0c91b3	-0.034318637
91	0x3ccd108b	0.025032302
92	0xbdd31c51	-0.10308135
93	0xbd0901cd	-0.033448983
94	0x3d3f8c8a	0.046764888
95	0xbd38530a	-0.045001067
96	0xbd096d55	-0.033551533
97	0x3dbfeac1	0.09370948
98	0x3ce36eed	0.027762854
99	0xbdd2efa0	-0.10299611
100	0x3d33fdff	0.0439434
101	0x3d49650e	0.04916864
102	0xbda406d2	-0.08009113
103	0x3c8c7ff7	0.017150862
104	0x3d6a1c42	0.057155855
105	0xbc7ece32	-0.0155520905
106	0xbd2329a7	-0.039834645
107	0xbd06e28f	-0.032930907
108	0xbd3a8db8	-0.04554531
109	0xbc7af5c1	-0.015317381
110	0x3c1ec273	0.009689915
111	0x3bf8bb71	0.007590704
112	0x3d0d3bdb	0.03448091
113	0xbd3884ab	-0.045048397
114	0xbcadb86a	-0.0212061
115	0xbce40224	-0.027833052
116	0xbcf5ec22	-0.030019823
117	0xbd8c97ef	-0.068649165
118	0xbd85022e	-0.06494556
119	0xbd4f60d1	-0.05062944
120	0x3d7f9135	0.06239434
121	0x3c2c3d56	0.0105126705
122	0xbd16cbd5	-0.036815483
123	0x3cbe702f	0.023246853
124	0xbd2fea64	-0.04294814
125	0x3cabc0e4	0.020966
126	0x3d24aa01	0.04020119
127	0xbc23c3e5	-0.009995435
128	0xbd1a1cea	-0.03762523
129	0xbc0c3545	-0.008557622
130	0xbd3e92e1	-0.046526793
131	0xbc70e6b6	-0.014703443
132	0x3ccde613	0.025134122
133	0xbb1bd4eb	-0.0023778032
134	0xbcca17ff	-0.024669645
135	0x3d1d725a	0.038439132
136	0x3dc657f4	0.096847445
137	0xbd5a8302	-0.053347595
138	0xbd4b35b6	-0.04961177
139	0xbd698241	-0.057008985
140	0xbdcc0d08	-0.09963423
141	0xbd8afe77	-0.067868166
142	0x3d11b6fd	0.0355749
143	0x3d53c527	0.05170169
144	0xbd8ca783	-0.06867888
145	0xbdb8c259	-0.09021444
146	0x3d0760bc	0.033051237
147	0x3d5e91de	0.05433833
148	0x3c0ec7e4	0.00871465
149	0xbda94edf	-0.082669966
150	0xbcefffd8	-0.0292968
151	0xbd9c27e3	-0.07624795
152	0x3b8878b1	0.004164778
153	0x3d6c6cd2	0.057720967
154	0x3d80f2d4	0.06296316
155	0x3d9a6ac9	0.07539899
156	0x3c88d8e8	0.016704991
157	0xbda79650	-0.08182967
158	0xbd6c2f43	-0.05766226
159	0x3d0d0fa1	0.034438733
160	0x3cc7508e	0.024330404
161	0x3d312f10	0.043257773
162	0x3d3245d4	0.043523625
163	0xbce96ad2	-0.028493319
164	0xbd959b06	-0.07304959
165	0x3b95f5dc	0.004576428
166	0x3ccbc037	0.024871929
167	0xbd12eb05	-0.035868663
168	0xbd474a7b	-0.048655014
169	0xbce6e6b8	-0.028186187
170	0x3c0d6b61	0.008631558
171	0xbd17e64c	-0.037084863
172	0x3d36de55	0.044645626
173	0xbd8418d9	-0.06450052
174	0x3d43acb8	0.04777214
175	0x3c9d68d2	0.019215021
176	0xbcc2933c	-0.023751847
177	0x3d420c09	0.04737476
178	0x3bef79a8	0.0073082037
179	0xbd074de8	-0.03303328
180	0xbd445109	-0.047928844
181	0xb9c0ea02	-0.00036795443
182	0xbd77b147	-0.0604718
183	0xbc3743fe	-0.011185644
184	0xbbac7e35	-0.0052640685
185	0xbc524d33	-0.012835789
186	0x3c1ada8a	0.009451518
187	0x3da00160	0.07812762
188	0x3c248037	0.010040334
189	0xbc5b6210	-0.013390079
190	0x3d9b1a0b	0.07573327
191	0xbcc7b2aa	-0.024377186
192	0xbd42e726	-0.04758372
193	0xbd221e81	-0.039579872
194	0x3d989fe9	0.074523754
195	0xbd46f44a	-0.048572816
196	0x3d5e7527	0.054310944
197	0xbda3841c	-0.07984182
198	0xbae7760d	-0.0017659083
199	0xbd8ab512	-0.06772818
200	0x3cada237	0.021195514
201	0xbd828a9f	-0.06374096
202	0x3db59ad2	0.0886742
203	0x3d185d2c	0.03719823
204	0xbd3a6c97	-0.045513716
205	0x3d1963d4	0.03744872
206	0x3cc68e00	0.024237633
207	0xbcf399ab	-0.02973636
208	0x3dad7dab	0.08471235
209	0x3d503a0f	0.05083662
210	0x3d4d3113	0.05009563
211	0xbd304783	-0.04303695
212	0x3dbfb2c5	0.093602695
213	0xbc35bded	-0.011092645
214	0xbdce5878	-0.10075468
215	0x3cbfe894	0.023426332
216	0x3d48b508	0.04900077
217	0xbd2a7e94	-0.04162462
218	0x3d8609d9	0.06544847
219	0xbd0e02be	-0.034670584
220	0x3c89a59f	0.016802607
221	0x3ccf15b7	0.02527891
222	0xbbe89b3e	-0.0070985844
223	0x3aef92a5	0.0018277956
224	0xbd9be96a	-0.076128796
225	0x3d619a39	0.05507872
226	0x3c91b605	0.017786989
227	0xbd7f2a8e	-0.062296443
228	0xbd327035	-0.04356404
229	0xbd1981de	-0.037477367
230	0x3c84d04b	0.016212603
231	0xbdcf37b4	-0.101180464
232	0xbc43dd35	-0.011954595
233	0x3cd17df7	0.02557276
234	0xbbd73a5e	-0.006568237
235	0xbc6fb8cc	-0.014631461
236	0xbd94e466	-0.07270126
237	0x3dac8e58	0.084255874
238	0x3d60e00d	0.05490117
239	0x3d825a19	0.06364841
240	0xbd9e3c8a	-0.07726391
241	0xbda9c710	-0.08289921
242	0xbd49970c	-0.049216315
243	0x3d4420ae	0.04788273
244	0xbd5703d3	-0.05249388
245	0x3cd88265	0.026429364
246	0xbd46d96f	-0.048547205
247	0x3c4b7baf	0.012419625
248	0x3d22cd6c	0.039746687
249	0x3d73adbf	0.05949187
250	0xbd484799	-0.048896406
251	0xbd5f1212	-0.054460593
252	0x3d443634	0.047903255
253	0xbc43d82b	-0.011953394
254	0xbdcd02e8	-0.1001032
255	0x3c01a92a	0.007913867
